checkpoints/checkpoint.pt (torch, 1395 bytes, 2 tensors)

conv1.weight f4 [3, 1, 5, 5]
0	0x3e0a7f4b	0.13525121
1	0xbe2beb32	-0.16788939
2	0xbb40da3a	-0.0029426948
3	0x3db8065c	0.08985588
4	0x3d84bff1	0.064819224
5	0x3d82ee36	0.063930914
6	0xbddf793d	-0.10911796
7	0x3e18b37c	0.14912218
8	0x3e544ff8	0.2073363
9	0x3e4f0202	0.2021561
10	0x3e46b806	0.19406137
11	0x3d400b15	0.04688557
12	0x3d9299c5	0.071582355
13	0xbe15a501	-0.14613725
14	0xbb86bff5	-0.0041122385
15	0xbc9b4368	-0.01895304
16	0x3bda9d8f	0.0066716145
17	0xbe2dabad	-0.1696002
18	0xbba90876	-0.0051584793
19	0x3d29e4be	0.04147791
20	0x3d810030	0.06298864
21	0x3dc6f169	0.09714014
22	0xbd9aad44	-0.07552579
23	0xbcc956f7	-0.0245776
24	0x3c0c27cc	0.00855441
25	0xbbf1afcf	-0.0073756943
26	0xbe09ef63	-0.13470225
27	0x3d3b73bf	0.04576468
28	0xbcbe6567	-0.023241712
29	0x3de0da69	0.109791584
30	0x3e33b2de	0.17548701
31	0xbdc72413	-0.097236775
32	0xbe247b5c	-0.16062683
33	0xbccd0a9f	-0.025029479
34	0xbde5f02d	-0.112274505
35	0x3d26322f	0.040575203
36	0xbdd09d82	-0.10186292
37	0xbd70896f	-0.058724817
38	0x3d5f7d98	0.054563135
39	0x3d85e772	0.06538285
40	0x3bd26efb	0.0064219213
41	0xbca2001b	-0.01977544
42	0x3d6c14ab	0.057636898
43	0xbdaf3bc8	-0.08556324
44	0xbbb2993f	-0.0054503973
45	0x3b48bcb2	0.003063005
46	0xbd5dfb1c	-0.054194555
47	0x3d3561b7	0.04428264
48	0x3d7dd05f	0.061966296
49	0x3d147a6f	0.036249574
50	0xbde41a48	-0.11137825
51	0x3dc05bc8	0.09392506
52	0x3d8e3f6e	0.06945692
53	0x3d8597ad	0.065230705
54	0x3df2f01e	0.11862205
55	0x3ce00feb	0.02735134
56	0xbdef33da	-0.11679812
57	0x3d28c6a0	0.04120505
58	0xbcc692c0	-0.024239898
59	0xbe2138a7	-0.15744267
60	0x3db05ec8	0.08611828
61	0xbe15892d	-0.1460311
62	0x3e46ff6d	0.19433375
63	0x3db9f26b	0.09079441
64	0x3e2a83f7	0.16651903
65	0xbd12db13	-0.035853457
66	0x3de45485	0.11148933
67	0xbd69ac0e	-0.05704885
68	0x3dbe234c	0.09284076
69	0xbca9f806	-0.02074815
70	0xbd2a13cc	-0.041522786
71	0x3c005546	0.007832831
72	0xbe311c6d	-0.17296
73	0x3db55009	0.08853156
74	0xbdf78255	-0.12085406

conv1.bias f4 [3]
0	0x3e2afbe9	0.16697659
1	0xbda689c4	-0.081317455
2	0xbe34abb5	-0.17643626
