checkpoints/checkpoint.pt (torch, 8493 bytes, 8 tensors)

conv1.weight f4 [8, 1, 3, 3]
0.008065023 -0.097429514 0.2687013 -0.12415496 -0.19449422 -0.00011899449 0.1938681 -0.22082585
-0.0397719 -0.19882564 -0.2179501 0.27144724 0.005643108 -0.29141372 0.30355334 -0.27112693
0.15419763 0.09385592 0.014548039 -0.29177707 0.14666677 -0.21172866 0.3609901 0.32853273
0.17178866 0.35053983 0.16371828 -0.1821565 0.32068104 -0.027936356 0.28675798 -0.22804041
0.27224144 0.03869421 0.16972011 0.08531588 -0.2843994 -0.11742642 -0.17460378 0.24307193
-0.30348253 0.02008548 0.29518408 0.05886873 -0.07691108 0.1310463 -0.100699514 -0.17245977
-0.26557994 -0.18833168 0.049562808 -0.34680277 -0.031071782 -0.09325775 -0.13924427 -0.0069233547
-0.16724665 0.1323727 0.020833824 -0.18365319 0.20799151 0.016329337 0.17341179 0.314012
-0.20374626 -0.27678728 0.13652685 0.14826325 -0.02971534 -0.28599006 0.20065197 0.12171519
00000000: 2923 043c 2089 c7bd 3793 893e f544 febd
00000010: 7e29 47be ae8c f9b8 5c85 463e 2c20 62be
00000020: dce7 22bd f398 4bbe 502e 5fbe 22fb 8a3e
00000030: d2e9 b83b 2e34 95be 586b 9b3e 26d1 8abe
00000040: fce5 1d3e 8837 c03d e65a 6e3c ce63 95be
00000050: d02f 163e 66cf 58be b2d3 b83e 7135 a83e
00000060: 5ee9 2f3e f579 b33e c4a5 273e 3c87 3abe
00000070: 4e30 a43e c9da e4bc f1d1 923e 6d83 69be
00000080: 3b63 8b3e d27d 1e3d 1ccb 2d3e 18ba ae3d
00000090: cc9c 91be 437d f0bd 55cb 32be d9e7 783e
000000a0: 1062 9bbe 4e8a a43c 5e22 973e 5620 713d
000000b0: 8e83 9dbd 0031 063e 8c3b cebd 4b99 30be
000000c0: 18fa 87be 05da 40be 5f02 4b3d 2290 b1be
000000d0: 408a febc ebfd bebd 0d96 0ebe 4fdd e2bb
000000e0: b542 2bbe b68c 073e b2ab aa3c 950f 3cbe
000000f0: bafb 543e 1ac5 853c dc92 313e 2ec6 a03e
00000100: dca2 50be 10b7 8dbe b2cd 0b3e 52d2 173e
00000110: 966d f3bc 4a6d 92be b677 4d3e d045 f93d

conv1.bias f4 [8]
-0.23525189 -0.17661175 0.24274983 0.20296487 0.25255525 -0.054081194 -0.1559384 0.15890545
00000000: dfe5 70be b6d9 34be 6993 783e 06d6 4f3e
00000010: ec4e 813e 3e84 5dbd 51ae 1fbe 1cb8 223e

conv2.weight f4 [8, 8, 3, 3]
-0.050575323 0.030362504 -0.04575249 -0.022493605 0.10650319 0.05571236 0.014959379 -0.06210555
0.050339613 0.058092467 -0.014238254 0.06081157 -0.08417335 -0.079518326 -0.07665825 -0.026547514
0.07520996 -0.07572631 0.12246424 -0.08534689 0.09693291 -0.052513655 0.10415131 0.059399266
-0.022050964 0.04493765 0.0117991865 0.13060844 -0.035561025 0.016463492 0.023090119 0.0018297146
0.0012438317 0.08279012 -0.04947541 -0.01888367 0.012744134 0.03833881 0.021271214 0.022069067
-0.013199353 -0.07045403 -0.029868077 0.039602134 -0.007286099 -0.062098958 -0.07078407 0.07559979
-0.00091356604 -0.02147103 -0.11001894 -0.04221506 0.10008151 0.05222603 0.00970777 -0.051751256
0.08254534 -0.01671383 -0.0048886077 -0.107073456 -0.07826141 0.013872079 -0.10608647 -0.06564195
-0.07694976 0.05218339 0.07692539 0.036040254 0.03652663 -0.06979325 -0.06921072 -0.04182709
0.017391885 0.024023183 -0.008062856 -0.05505914 0.107080884 0.040157422 -0.087482564 -0.08727046
0.07685091 0.08038559 -0.026158102 0.109782405 -0.09465984 0.061800353 -0.059611395 -0.0662118
-0.111768134 0.04261649 0.077455044 0.07345815 0.03721678 -0.04490007 -0.014786359 0.04495367
0.080086194 0.12389826 0.013727947 -0.057468697 0.07797459 0.0012670764 0.101004414 -0.054950666
-0.017673481 0.08566168 -0.05622046 -0.018990109 -0.001374017 0.05507166 0.11222985 0.087574005
-0.10769535 0.07932483 0.04536317 -0.10647198 -0.024454553 -0.06763163 -0.095709264 0.031060077
0.034472838 -0.06591742 0.055227123 -0.051132593 0.006775705 -0.036881384 -0.039502956 -0.07108644
-0.022115303 -0.009504838 -0.01631614 0.0040094648 -0.009215443 -0.08874647 0.049724698 0.05626724
0.011182448 0.039291587 -0.07823478 0.0065537044 -0.067055665 -0.09750782 -0.078569636 -0.11214978
0.040480275 -0.11568011 0.09641046 0.055799186 -0.095252804 -0.08930769 -0.07166069 -0.08945853
0.00413844 -0.064526536 -0.0047132163 -0.012488238 0.04284745 -0.012418583 0.030823413 0.0005846774
-0.05636044 0.11315467 -0.010240796 0.012490482 -0.022746475 0.053406622 0.03324629 -0.012602831
-0.020347895 -0.009207904 0.118884936 -0.058997925 0.08456949 -0.1070285 -0.10154556 -0.07613095
-0.0064699464 0.047112677 0.10577999 0.10347505 0.07090164 -0.009135351 -0.093590096 0.07704159
0.007895019 0.009028937 -0.121855676 0.09887209 -0.007260942 -0.025396073 -0.09278917 0.02333098
0.112627506 -0.08827851 -0.010870607 -0.04081327 -0.1212624 0.06349438 -0.09777093 -0.015594436
-0.009478087 0.035136867 -0.067176536 0.093982644 0.051223442 0.042435013 0.074400015 -0.10263836
0.06640407 -0.093386486 -0.015108429 0.10763143 0.027532883 -0.029932644 -0.042006854 -0.025192363
0.051896628 0.11101407 0.03573848 0.108908184 -0.11625134 0.05588724 -0.032488935 0.08958545
-0.057728834 0.11150148 0.09701503 -0.028317038 -0.044197455 -0.07245668 -0.10279944 0.038117122
-0.06450199 0.06564511 -0.098183915 0.04342148 0.065614305 0.03129214 -0.09731931 0.06689236
-0.01854905 0.041218627 0.0015800014 -0.03397137 -0.046180878 -0.0923183 -0.056459855 -0.079411596
-0.021117264 -0.00937359 -0.013172615 0.08848669 -0.09349676 0.0011703725 0.07016907 -0.021989847
00000000: 1228 4fbd c9ba f83c f766 3bbd 8244 b8bc
00000010: 581e da3d a532 643d 2f18 753c 6462 7ebd
00000020: e930 4e3d 5ef2 6d3d 9147 69bc 8e15 793d
00000030: 1463 acbd 81da a2bd 00ff 9cbd 2c7a d9bc
00000040: ae07 9a3d 6516 9bbd 88ce fa3d 5aca aebd
00000050: c384 c63d 8f18 57bd 484d d53d a54c 733d
00000060: 39a4 b4bc 8b10 383d 6051 413c 38be 053e
00000070: 70a8 11bd 72de 863c 7d27 bd3c 09d3 ef3a
00000080: 1108 a33a de8d a93d baa6 4abd edb1 9abc
00000090: c6cc 503c 2809 1d3d f840 ae3c 30ca b43c
000000a0: 1942 58bc 344a 90bd e6ad f4bc d935 223d
000000b0: 3ac0 eebb 7a5b 7ebd 3df7 90bd 10d4 9a3d
000000c0: 617c 6fba 03e4 afbc 9c51 e1bd b3e9 2cbd
000000d0: 89f7 cc3d f6ea 553d 570d 1f3c 20f9 53bd
000000e0: 880d a93d 71eb 88bc 9d30 a0bb 5449 dbbd
000000f0: 8547 a0bd b747 633c dd43 d9bd 496f 86bd
00000100: d697 9dbd 40be 553d 0f8b 9d3d f29e 133d
00000110: f39c 153d c3ef 8ebd 5abe 8dbd e252 2bbd
00000120: 6d79 8e3c 44cc c43c 121a 04bc b185 61bd
00000130: 394d db3d 1c7c 243d 0f2a b3bd dbba b2bd
00000140: 0364 9d3d 33a1 a43d 8449 d6bc 99d5 e03d
00000150: 05dd c1bd 5e22 7d3d 142b 74bd 0d9a 87bd
00000160: b1e6 e4bd a18e 2e3d c0a0 9e3d 3a71 963d
00000170: 9f70 183d 23e9 37bd 7c42 72bc 5721 383d
00000180: 3b04 a43d 5fbe fd3d 2feb 603c 4c64 6bbd
00000190: 24b1 9f3d 0714 a63a 67db ce3d f313 61bd
000001a0: fac7 90bc 646f af3d 6d47 66bd 2591 9bbc
000001b0: 5c18 b4ba d292 613d c3d8 e53d 005a b33d
000001c0: 618f dcbd 0e75 a23d bbce 393d fb0d dabd
000001d0: ea54 c8bc 7482 8abd 3803 c4bd b471 fe3c
000001e0: 6433 0d3d b6ff 86bd d635 623d 6970 51bd
000001f0: bc06 de3b ef10 17bd dacd 21bd c495 91bd
00000200: 272b b5bc 2eba 1bbc 6da9 85bc d461 833b
00000210: 5ffc 16bc b6c0 b5bd 20ac 4b3d 7a78 663d
00000220: 9636 373c 37f0 203d 8e39 a0bd 75c0 d63b
00000230: 7b54 89bd 2eb2 c7bd 1ee9 a0bd c9ae e5bd
00000240: a5ce 253d b2e9 ecbd d972 c53d b08d 643d
00000250: e713 c3bd f3e6 b6bd d7c2 92bd 0936 b7bd
00000260: c09b 873b 7d26 84bd 5371 9abb 779b 4cbc
00000270: cf80 2f3d 5077 4bbc 6281 fc3c 0945 193a
00000280: 34da 66bd a3bd e73d 03c9 27bc e1a4 4c3c
00000290: d156 babc e7c0 5a3d 432d 083d 1b7c 4ebc
000002a0: a1b0 a6bc c0dc 16bc f279 f33d cfa7 71bd
000002b0: c532 ad3d c231 dbbd 1ef7 cfbd 8bea 9bbd
000002c0: d801 d4bb 39f9 403d 2ea3 d83d baea d33d
000002d0: e134 913d 70ac 15bc 2aac bfbd fbc7 9d3d
000002e0: 1c5a 013c 1bee 133c 788f f9bd 737d ca3d
000002f0: 32ed edbb 6d0b d0bc 4008 bebd 9d20 bf3c
00000300: 40a9 e63d 5dcb b4bd a11a 32bc d12b 27bd
00000310: 6c58 f8bd 5709 823d 203c c8bd ce7f 7fbc
00000320: fa49 1bbc adeb 0f3d da93 89bd f979 c03d
00000330: accf 513d 56d0 2d3d 095f 983d 0f34 d2bd
00000340: dbfe 873d 6a41 bfbd 5889 77bc de6d dc3d
00000350: a48c e13c 4e35 f5bc 610f 2cbd 3760 cebc
00000360: 8f91 543d 585b e33d 8362 123d 410b df3d
00000370: 2f15 eebd 05ea 643d 1e13 05bd 9478 b73d
00000380: 1275 6cbd e35a e43d d1af c63d 22f9 e7bc
00000390: 6408 35bd 2b64 94bd 8388 d2bd b320 1c3d
000003a0: 9f19 84bd f270 863d a614 c9bd b9da 313d
000003b0: cb60 863d 302c 003d 594f c7bd ddfe 883d
000003c0: 2df4 97bc ddd4 283d 0d18 cf3a 9025 0bbd
000003d0: 2928 3dbd 6011 bdbd 7342 67bd 8ca2 a2bd
000003e0: 1dfe acbc b093 19bc f4d1 57bc 8238 b53d
000003f0: 3b7b bfbd 2f67 993a cdb4 8f3d 0d24 b4bc

conv2.bias f4 [8]
0.091485314 0.11268215 0.09045358 0.09812881 0.059011426 0.07415325 0.060255628 0.13684319
00000000: a75c bb3d e6c5 e63d ba3f b93d c2f7 c83d
00000010: f7b5 713d a9dd 973d 9bce 763d 9f20 0c3e

conv3.weight f4 [8, 8, 3, 3]
0.1085022 0.043366008 -0.039087284 -0.09773862 0.0712337 -0.009863189 -0.092645794 -0.03871672
0.003988824 0.092890695 0.09253142 -0.013749536 -0.015953848 -0.08693644 -0.069426395 0.007369562
-0.080856234 -0.02293372 0.103417054 -0.023064796 0.082027905 0.03146559 0.10279775 -0.071428955
0.09092041 0.048773315 0.0057936856 -0.05263231 -0.071251586 -0.10825798 0.11705095 -0.09692681
0.09108059 -0.08633922 0.056389365 -0.004954191 0.0122432895 -0.033135444 0.1069837 0.1137773
-0.06190685 0.010554127 -0.09289436 -0.0984852 0.07239597 0.046425544 -0.042172354 -0.12028331
-0.06405088 -0.045494422 0.06837181 -0.06417731 -0.0813765 -0.07372403 0.004567621 -0.07668311
0.07538379 0.08710255 0.12769803 0.03242715 0.065543726 0.051327806 0.0005865448 -0.117533065
0.108880535 -0.007643588 -0.028446812 0.08337013 0.00663621 0.08580924 -0.0042109373 0.017247219
-0.066607654 0.022751508 0.044899024 0.03690004 -0.08634882 -0.06141632 0.108038954 -0.009972027
-0.032057986 -0.0937086 -0.065622434 0.08348379 0.052143823 0.07616218 0.029135633 -0.101955816
-0.038221322 -0.035154134 -0.063277006 0.021721205 0.009566004 -0.045160767 -0.05942123 -0.0797087
0.09646225 0.09342814 -0.05280597 -0.053902917 0.09404663 0.09715095 -0.09715733 -0.07893832
-0.04488137 0.111150555 -0.057668187 -0.0072736777 0.11376574 -0.06642373 0.090109624 0.09711488
-0.12807049 -0.040191088 -0.09131719 0.012081431 -0.04112469 -0.068389125 -0.10474118 0.00394511
-0.072114855 0.017100247 0.08814044 -0.099051215 0.0019852186 -0.07081439 -0.048419636 0.06764057
0.09468064 -0.04376169 0.09851243 -0.012430766 0.07273281 0.110162586 0.11592795 -0.022636928
-0.09285629 -0.01321882 -0.031255815 -0.038910456 0.072697096 -0.045038287 -0.121005036 0.040734112
0.066463195 -0.012732092 -0.039058313 0.072468504 -0.022341292 -0.056418706 -0.09921397 -0.0885005
-0.09845157 0.051476344 -0.108404666 0.070478134 0.039756272 -0.08669413 0.10817945 -0.041521452
-0.10613831 0.024151558 -0.08847029 0.0003204868 0.051932123 0.06790717 -0.08309659 0.04397387
0.028599596 0.004093763 0.10849083 0.010145913 -0.08018932 0.09122772 -0.111266695 -0.0021965306
-0.026448613 -0.11573934 -0.065829866 -0.06506067 0.11483071 -0.015491561 -0.09496793 0.08844028
-0.1181091 -0.008153467 -0.048551045 0.075707264 -0.08882683 -0.047548663 0.013075798 0.11310564
-0.06706008 -0.08974841 0.0015868548 -0.09729213 0.105794825 0.08658432 0.11815425 -0.029053057
0.022911357 -0.066569105 -0.041331086 0.12294575 0.14011376 0.109629035 0.15558283 -0.040348724
0.028412282 -0.078558385 -0.1149248 -0.018762484 -0.09246415 -0.0015832454 -0.08332263 -0.050422356
-0.016806453 -0.09885859 0.004393131 0.0116955545 -0.07430381 -0.08177643 -0.1118791 -0.058686618
0.060570933 -0.10323337 -0.015198628 -0.0030642725 0.09061512 0.015549937 0.053020082 -0.08423049
-0.05033306 -0.07841902 0.044632077 -0.061588358 -0.104583606 -0.04306671 -0.053477738 -0.079178
0.087099925 0.09313177 -0.086724415 -0.0135656865 -0.004614726 -0.041815724 -0.079368144 0.06587758
0.031143902 0.036212273 0.0026110336 0.073449545 -0.09297496 -0.02109849 0.08408443 0.057289116
00000000: 6736 de3d 8ea0 313d fd19 20bd 302b c8bd
00000010: f9e2 913d 3799 21bc 14bd bdbd 6c95 1ebd
00000020: aeb4 823b 7a3d be3d 1d81 bd3d bc45 61bc
00000030: a5b1 82bc bb0b b2bd 6d2f 8ebd 5e7c f13b
00000040: f497 a5bd 7fdf bbbc 52cc d33d 62f2 bcbc
00000050: 3ffe a73d 10e2 003d a087 d23d 5849 92bd
00000060: 7b34 ba3d 87c6 473d f5d8 bd3b fa94 57bd
00000070: 5aec 91bd 5cb6 ddbd 69b8 ef3d 9081 c6bd
00000080: 7688 ba3d 9ed2 b0bd 89f8 663d c456 a2bb
00000090: 1498 483c 08b9 07bd 451a db3d 1304 e93d
000000a0: 0a92 7dbd 38eb 2c3c 663f bebd 9cb2 c9bd
000000b0: 5744 943d b628 3e3d ebbc 2cbd 1957 f6bd
000000c0: 1c2d 83bd 5c58 3abd 8506 8c3d 656f 83bd
000000d0: b9a8 a6bd a0fc 96bd fbab 953b 090c 9dbd
000000e0: d162 9a3d d262 b23d 46c3 023e 55d2 043d
000000f0: ca3b 863d 1b3d 523d 5bc2 193a 2db5 f0bd
00000100: c2fc de3d 1077 fabb 4a09 e9bc f5bd aa3d
00000110: 9074 d93b c1bc af3d e7fb 89bb 0a4a 8d3c
00000120: 9869 88bd 5f61 ba3c 0ae8 373d 7f24 173d
00000130: a6d7 b0bd ae8f 7bbd 8743 dd3d b661 23bc
00000140: 3c4f 03bd 4bea bfbd 0e65 86bd 8df9 aa3d
00000150: c394 553d ebfa 9b3d daad ee3c 36ce d0bd
00000160: f68d 1cbd c8fd 0fbd 6097 81bd abf0 b13c
00000170: bbba 1c3c 7ffa 38bd ad63 73bd 513e a3bd
00000180: 008e c53d 4157 bf3d 134b 58bd 4ec9 5cbd
00000190: 859b c03d 14f7 c63d 6cfa c6bd 6aaa a1bd
000001a0: 87d5 37bd e7a2 e33d 7a35 6cbd 0858 eebb
000001b0: 03fe e83d 2a09 88bd 658b b83d 2be4 c63d
000001c0: e924 03be 699f 24bd 8204 bbbd 32f1 453c
000001d0: 5d72 28bd 990f 8cbd 8b82 d6bd fb45 813b
000001e0: f4b0 93bd d115 8c3c fa82 b43d 5ddb cabd
000001f0: 711a 023b 2307 91bd ab53 46bd 2487 8a3d
00000200: ece7 c13d 753f 33bd e3c0 c93d 69aa 4bbc
00000210: f1f4 943d ec9c e13d a26b ed3d 1471 b9bc
00000220: 702b bebd c093 58bc 1906 00bd 9260 1fbd
00000230: 37e2 943d 117a 38bd 7dd1 f7bd d0d8 263d
00000240: db1d 883d 449a 50bc 9cfb 1fbd 5e6a 943d
00000250: 1605 b7bc 4d17 67bd b230 cbbd c03f b5bd
00000260: faa0 c9bd dcd8 523d 4403 debd d756 903d
00000270: 79d7 223d b18c b1bd 308d dd3d 6612 2abd
00000280: 0b5f d9bd 7dd9 c53c e92f b5bd 0307 a839
00000290: c7b6 543d ea12 8b3d 8c2e aabd f21d 343d
000002a0: b349 ea3c f924 863b 7130 de3d 0b3b 263c
000002b0: 4c3a a4bd 99d5 ba3d cbdf e3bd abf3 0fbb
000002c0: c3aa d8bc bf08 edbd cfd1 86bd 873e 85bd
000002d0: 5d2c eb3d 51d0 7dbc 8c7e c2bd 2d20 b53d
000002e0: 2fe3 f1bd 1f96 05bc 76dd 46bd 690c 9b3d
000002f0: d7ea b5bd 63c2 42bd df3b 563c eea3 e73d
00000300: cc56 89bd 04ce b7bd 03fe cf3a 1941 c7bd
00000310: f5aa d83d 1f53 b13d dbfa f13d ad00 eebc
00000320: 99b0 bb3c 6255 88bd c94a 29bd fbca fb3d
00000330: fb79 0f3e 3085 e03d 1b51 1f3e b444 25bd
00000340: e0c0 e83c 38e3 a0bd b25d ebbd c8b3 99bc
00000350: d85d bdbd e684 cfba 0ea5 aabd ac87 4ebd
00000360: b0ad 89bc 5f76 cabd 41f4 8f3b b69e 3f3c
00000370: 992c 98bd 677a a7bd df20 e5bd 6161 70bd
00000380: 3a19 783d 046c d3bd ab03 79bc f6d1 48bb
00000390: 6c94 b93d 2ac5 7e3c 962b 593d 0981 acbd
000003a0: 0a2a 4ebd 279a a0bd 20d0 363d 1344 7cbd
000003b0: ee2f d6bd b866 30bd 790b 5bbd 1328 a2bd
000003c0: 7261 b23d dfbb be3d 929c b1bd 9d42 5ebc
000003d0: 2137 97bb f746 2bbd c48b a2bd d3ea 863d
000003e0: 7f21 ff3c 5253 143d e01d 2b3b b76c 963d
000003f0: a869 bebd bed6 acbc 7534 ac3d fea7 6a3d

conv3.bias f4 [8]
-0.1311566 0.15963033 0.2722456 -0.02248018 0.02162148 0.016142324 0.16251893 0.11286773
00000000: ea4d 06be 2276 233e c663 8b3e 5b28 b8bc
00000010: 881f b13c e83c 843c 5d6b 263e 3227 e73d

conv4.weight f4 [3, 8, 3, 3]
-0.073213615 -0.08470888 0.06597746 -0.1141152 -0.010130718 0.012514205 -0.12284317 0.027934968
-0.085823536 -0.04262978 -0.014216186 -0.047151987 -0.14943884 -0.059872128 -0.048235647 -0.14314882
-0.04406205 -0.13452889 0.0139496885 -0.10525685 0.03773984 -0.12039405 -0.078279085 0.0047540725
-0.0366144 -0.023214005 -0.1523378 -0.11972026 0.041543152 -0.11885493 -0.11814413 -0.10201572
-0.011380806 -0.042727634 -0.11504099 0.08302585 -0.045087833 0.10572437 0.044856504 0.062274814
-0.04461982 0.154181 0.10238818 0.14895573 0.0051996103 0.09638443 -0.06952509 0.0122393295
0.025416875 -0.041904304 -0.04369102 -0.057964984 0.10287195 -0.058199055 0.08538016 -0.09691645
-0.102625854 0.052249506 -0.1418846 -0.0337709 -0.02160774 -0.01750885 0.00867421 0.10487603
-0.07745277 0.04142397 0.00049618375 0.15553243 0.1388061 0.13708493 -0.05803701 0.04779177
0.03176103 0.098167546 -0.11976194 0.088683404 -0.10209715 -0.02236334 -0.084067084 0.116944574
-0.0592872 -0.034723163 -0.072001085 -0.025019076 -0.09959972 -0.060369805 -0.026442656 -0.05368347
-0.04102253 0.06444261 -0.13804887 -0.10460512 -0.11779624 0.03250808 -0.11188298 0.023380967
-0.028026208 -0.13520576 0.035677973 -0.11415296 0.051983904 -0.081501015 -0.07259297 0.010633501
0.07833156 0.07259988 0.04856662 -0.11887594 -0.033507537 -0.05620548 0.1502561 0.1767095
0.011249636 0.09489994 0.1254302 0.10831115 0.06698788 0.071489595 -0.10474912 -0.0616902
0.10033776 -0.08932349 0.040493235 -0.024101567 0.06391279 0.047828328 -0.10203045 -0.10542243
-0.018006766 -0.020909496 -0.1121886 -0.014881326 -0.06326275 -0.099690795 -0.0249302 0.081636555
0.059673652 -0.016543694 0.110857785 -0.08104883 -0.06295002 0.011865476 -0.072974145 0.009335411
-0.072905764 0.08513182 0.108531155 0.07316729 0.092712805 0.06106923 0.08521498 -0.09978486
-0.049438845 -0.12038843 -0.13034792 0.0763889 0.06729144 0.029663892 -0.122058384 -0.080455765
0.05581895 -0.06509614 -0.08308021 -0.046473175 -0.08919735 -0.15392837 0.019564858 -0.04162021
-0.120256424 -0.09192859 -0.114874974 0.05613301 -0.050821763 0.068677574 -0.05404553 0.0615496
0.07366818 -0.094508454 -0.11004652 0.115665115 0.085197106 0.1100324 -0.011717789 -0.058660228
0.15441285 0.099440195 0.12458481 0.09092009 0.047817446 -0.09343281 0.09251946 0.050086726
0.0827266 0.06835524 -0.06883604 -0.014178602 -0.083876304 0.01054924 0.02989183 -0.13116887
-0.12262772 0.0804543 -0.0932297 0.04573205 0.066139266 -0.088046625 -0.10634141 -0.029689489
-0.11583088 -0.09091322 0.107140884 0.028048407 -0.010128739 -0.11842297 0.053815298 0.017433662
00000000: 05f1 95bd d97b adbd 311f 873d 3bb5 e9bd
00000010: 50fb 25bc 6108 4d3c 3395 fbbd e0d7 e43c
00000020: 40c4 afbd 909c 2ebd 01eb 68bc 7122 41bd
00000030: 7f06 19be 7a3c 75bd be92 45bd 9b95 12be
00000040: 687a 34bd f1c1 09be 3c8d 643c e790 d7bd
00000050: 1795 1a3d 2891 f6bd c950 a0bd 0dc8 9b3b
00000060: fbf8 15bd 4c2b bebc 71fe 1bbe e52f f5bd
00000070: 2729 2a3d 376a f3bd 8df5 f1bd 9eed d0bd
00000080: 8f76 3abc 2c03 2fbd 9c9a ebbd 7509 aa3d
00000090: 05ae 38bd 0586 d83d 74bb 373d e013 7f3d
000000a0: 46c3 36bd a0e1 1d3e e5b0 d13d da87 183e
000000b0: 7e61 aa3b 3365 c53d 2c63 8ebd 7887 483c
000000c0: 0d37 d03c d9a3 2bbd 5bf5 32bd b16c 6dbd
000000d0: 87ae d23d 2262 6ebd cbdb ae3d 227c c6bd
000000e0: 812d d2bd 9403 563d 324a 11be 5b53 0abd
000000f0: b702 b1bc b86e 8fbc 461e 0e3c 3ec9 d63d
00000100: 8f9f 9ebd 2eac 293d 5412 023a e543 1f3e
00000110: 3023 0e3e fe5f 0c3e 37b8 6dbd 4ec1 433d
00000120: db17 023d 110c c93d bf45 f5bd a59f b53d
00000130: 5018 d1bd 5333 b7bc 5d2b acbd a380 ef3d
00000140: 23d7 72bd e039 0ebd 4e75 93bd cef4 ccbc
00000150: f0fa cbbd 5446 77bd 459e d8bc 33e3 5bbd
00000160: 3e07 28bd 7dfa 833d af5c 0dbe 363b d6bd
00000170: 283f f1bd 3127 053d e722 e5bd 7189 bf3c
00000180: 3897 e5bc 6173 0abe 1123 123d 07c9 e9bd
00000190: 13ed 543d 01ea a6bd a0ab 94bd 2338 2e3c
000001a0: 4c6c a03d 3faf 943d cbed 463d 3b75 f3bd
000001b0: 333f 09bd b837 66bd bcdc 193e 56f3 343e
000001c0: 6550 383c e65a c23d c670 003e 3cd2 dd3d
000001d0: f130 893d 2369 923d b586 d6bd ddae 7cbd
000001e0: e27d cd3d 3cef b6bd 3cdc 253d a670 c5bc
000001f0: b5e4 823d a3e7 433d 57f5 d0bd b7e7 d7bd
00000200: ed82 93bc 644a abbc 23c3 e5bd ced0 73bc
00000210: e78f 81bd b02a ccbd 6b3a ccbc 1131 a73d
00000220: 5c6c 743d a486 87bc 6809 e33d eefc a5bd
00000230: f1eb 80bd 6a67 423c 7873 95bd 8df3 183c
00000240: 9e4f 95bd 9759 ae3d 9545 de3d bbd8 953d
00000250: 36e0 bd3d bb23 7a3d 3185 ae3d 015c ccbd
00000260: 6380 4abd 368e f6bd ed79 05be c971 9c3d
00000270: 18d0 893d b101 f33c bff9 f9bd fec5 a4bd
00000280: 69a2 643d 2051 85bd f525 aabd a85a 3ebd
00000290: 1aad b6bd 669f 1dbe 7b46 a03c f479 2abd
000002a0: 0049 f6bd 0e45 bcbd 9243 ebbd baeb 653d
000002b0: 7b2a 50bd d4a6 8c3d d85e 5dbd 6f1b 7c3d
000002c0: 58df 963d a68d c1bd 1260 e1bd d5e1 ec3d
000002d0: d27b ae3d ab58 e13d f8fb 3fbc b545 70bd
000002e0: 671e 1e3e 4da7 cb3d 5226 ff3d 5034 ba3d
000002f0: 3adc 433d b359 bfbd d87a bd3d bd27 4d3d
00000300: 906c a93d d5fd 8b3d e9f9 8cbd 5e4d 68bc
00000310: 57c7 abbd b8d6 2c3c b6df f43c 2251 06be
00000320: 3e24 fbbd 39c5 a43d 37ef bebd 8851 3b3d
00000330: 0674 873d ca51 b4bd 86c9 d9bd 5f37 f3bc
00000340: be38 edbd b630 babd ae6c db3d c6c5 e53c
00000350: 03f3 25bc be87 f2bd 6e6d 5c3d 0ad1 8e3c

conv4.bias f4 [3]
0.12848249 -0.10759444 -0.25461143
00000000: ea90 033e 795a dcbd 6e5c 82be
