checkpoints/checkpoint.pt (torch, 8493 bytes, 8 tensors)

conv1.weight f4 [8, 1, 3, 3]
000000 79 e3 c4 bd 15 b0 80 3e ff ba 91 3d 78 08 84 bd
       -0.096136995 0.2513434 0.07115745 -0.06446928
000010 ea be 41 3d e4 30 96 3e bd f5 83 be dc 9c 5d bd
       0.04730121 0.29334176 -0.2577342 -0.05410467
000020 b8 17 54 be d1 ce 6c 3e 8d 24 2f be 6d 94 a5 3e
       -0.20712173 0.23125769 -0.17103787 0.32339802
000030 7d f6 10 3e d0 a3 51 be 52 79 03 be 6f da 8a 3e
       0.14156528 -0.20472646 -0.12839249 0.27119777
000040 42 dc 08 be 37 73 9e be 17 fd a7 be 06 a1 77 3e
       -0.13365272 -0.30947277 -0.3281028 0.2418252
000050 1d bf 82 3e 51 05 8b 3e 36 03 d7 bd 83 05 5d be
       0.25536433 0.27152494 -0.10498659 -0.21584134
000060 ab 4c b1 bc a2 10 99 be 21 10 a9 3e b5 17 59 bd
       -0.021643003 -0.29895502 0.33020118 -0.053001124
000070 fb 8e 09 3e 71 04 9f 3e 93 46 8c 3d 84 64 8f 3e
       0.13433449 0.31058076 0.068493985 0.28006375
000080 89 fa 92 be 9c 60 85 bd 5a ed 9d be f4 55 73 be
       -0.28706768 -0.065125674 -0.30845147 -0.23763257
000090 8a ac 04 3e 23 a8 81 3e 87 d1 24 3d 82 55 43 be
       0.12956443 0.2532359 0.040238883 -0.19075587
0000a0 0b a0 4e bd 23 b4 45 bd f4 87 73 3d eb 9e 6c 3e
       -0.050445598 -0.048267495 0.059455827 0.23107497
0000b0 cc ec 74 be 2c d8 9f 3d 78 51 8d be ff 0e 07 be
       -0.23918456 0.078049034 -0.27601218 -0.13189314
0000c0 fd dc 8e bd 44 80 1a 3e ee 88 82 3e 7b 75 87 be
       -0.06975744 0.15087992 0.25495094 -0.26456818
0000d0 8c f6 23 be 03 2a 1b 3e a9 9b f7 bd 16 88 8e be
       -0.16012019 0.15152745 -0.12090237 -0.278382
0000e0 34 78 74 be 66 b9 fc 3d 6c 25 fa bc d6 20 83 be
       -0.23873979 0.123400494 -0.030535422 -0.2561099
0000f0 c4 3d 2a be 0d b7 57 3e 00 99 67 3e 74 3f 65 3e
       -0.16625124 0.21065922 0.22616959 0.22387487
000100 2f 61 20 3c 56 a2 99 3e 1a 36 a5 be a3 d2 15 bd
       0.009788795 0.30006665 -0.3226784 -0.036577832
000110 05 8f e3 bb 60 29 93 3d ee 75 b8 bd 1f f6 a3 3e
       -0.0069445395 0.07185626 -0.09006868 0.32023713

conv1.bias f4 [8]
000000 77 45 d1 3d 24 c2 ca bd 7f 70 80 be 06 7d 9a 3d
       0.102183275 -0.09900311 -0.25085828 0.075433776
000010 f5 f5 06 3e 1e b6 3d 3e f5 f2 6a be 78 7d 9c 3c
       0.13179763 0.18526503 -0.22944243 0.019102797

conv2.weight f4 [8, 8, 3, 3]
000000 8b 45 49 3d e3 8f 53 bd e7 1e c8 3d 6c 7e b7 3d
       0.049138587 -0.051650893 0.09771519 0.0895966
000010 12 29 e4 bd 30 e0 77 bb a8 21 3a bd 1d e9 e4 3c
       -0.11140646 -0.0037822835 -0.045442253 0.027943188
000020 74 0b 60 bc ca 3f d8 bd ba 64 01 3d f0 22 96 3c
       -0.013674606 -0.10559042 0.0315902 0.018327206
000030 e4 59 f5 bc 09 6d 62 3d a4 57 0c bd 5a 8b a6 3c
       -0.02995009 0.055279765 -0.034263268 0.02033012
000040 16 48 d4 bd 5c 89 e9 bd c4 b3 0a bd 2b 11 c6 bd
       -0.10365312 -0.11403152 -0.033862844 -0.09671243
000050 b3 a8 67 bb 4c 9d a8 bc 29 11 f1 3d d4 9a 96 3c
       -0.0035348355 -0.020582817 0.11770851 0.018384375
000060 f6 a9 1c 3d e7 8f ad 3d 80 a6 d4 bc 2f 29 82 3c
       0.038248025 0.08474713 -0.0259583 0.015888778
000070 02 89 82 3d b0 53 e8 3d a2 42 e7 bc 68 ad 9b bd
       0.063737884 0.11344087 -0.028230015 -0.07601434
000080 cd 74 70 3d b9 50 5e bd a5 c6 f6 bc da c1 6c 3d
       0.05870514 -0.054276202 -0.030124018 0.05780206
000090 ec a2 ab 3d 26 ce 79 3d 34 cc 31 3d 10 39 78 bd
       0.08380684 0.060987614 0.043407634 -0.060601294
0000a0 50 d0 9f bd 15 c0 bc bc f9 1e 92 3d de ff ec 3d
       -0.07803404 -0.02304081 0.07134814 0.1157224
0000b0 e2 4f 1f 3d 54 53 7e bb f9 42 c6 3d fd 59 87 39
       0.03889454 -0.0038806992 0.09680743 0.00025816253
0000c0 f8 78 ef bd 8f 63 cc 3d ed 87 96 3d ab 90 f3 3c
       -0.11692995 0.09979927 0.073501445 0.029732069
0000d0 9b 1f aa bd 13 15 13 3c cf e9 13 bd 4c 1e 19 bd
       -0.083068095 0.008977192 -0.03611165 -0.03738241
0000e0 1a 6a 29 3d 5a 0b 8f bd 70 ce 05 bc 2e 4d 61 bb
       0.041360952 -0.06984587 -0.008166894 -0.0034378278
0000f0 26 65 a7 3d de 17 82 3d 52 92 9a 3d 42 a7 fa 3c
       0.081735894 0.063522086 0.0754744 0.030597333
000100 74 c2 df 3c f1 5c 57 bd 49 53 65 bd a0 1c ce bc
       0.027314402 -0.05257887 -0.05598763 -0.025160134
000110 a9 a0 17 bd ef cc 27 3b a4 f6 ae 3d b9 a6 e4 3d
       -0.03701845 0.0025604328 0.08543137 0.11164612
000120 57 f5 3e bd 3a 7d c1 3b 11 00 e4 bd 75 ce e0 bc
       -0.046620693 0.0059048207 -0.11132825 -0.027442196
000130 1f 1b 69 3d 73 91 8e 3d b1 60 11 3d cd 9c e0 bd
       0.05691063 0.06961336 0.035492603 -0.109674074
000140 54 f1 df bd af ce 3f 3d 54 f9 20 3d 5a 60 40 3d
       -0.109347016 0.04682797 0.039300278 0.046966888
000150 a6 4c b6 3d 8c b6 de 3d a8 8d b3 bc a4 fd 06 3a
       0.08901338 0.10874662 -0.021918133 0.000514949
000160 cd 52 e4 bd 90 75 c2 3d 60 98 02 bd 2d 94 8b 3d
       -0.111486055 0.094950795 -0.031883597 0.06815372
000170 7e 43 ea bd 16 bf 03 3d 7b 22 d2 3d c0 6b ef bc
       -0.11438654 0.032164656 0.10260483 -0.029226184
000180 b4 61 a5 bd b0 ab f3 3b 00 e9 2e bc ec f6 8d bd
       -0.08075276 0.007436238 -0.010675669 -0.06931862
000190 80 66 e1 3d b8 17 c0 3c 9f 48 e7 39 bc ec 1b 3d
       0.110058784 0.02344881 0.0004411386 0.038067564
0001a0 b6 d0 b2 bd 0c 9c 5f bd 20 a1 f1 3d b0 3b e0 3d
       -0.08731215 -0.054592177 0.1179831 0.109488845
0001b0 eb 77 e9 3b cc 1c f1 bd 7a 9f 12 3c 12 13 98 3d
       0.007124891 -0.11773071 0.008949155 0.074255124
0001c0 6b 6e 3e bd 21 7e b0 3c f5 aa 2f 3d 26 f7 03 bd
       -0.04649202 0.021544518 0.042887647 -0.03221812
0001d0 58 7c b6 bd 57 91 77 bd 0f 0d e1 3c d6 5a c5 3d
       -0.089104354 -0.06044134 0.027472047 0.09636466
0001e0 65 eb e7 bd 4d 72 87 3c 58 b2 ec bd 84 41 ee 3d
       -0.11324195 0.016533995 -0.11557454 0.1163359
0001f0 4e ef 2a 3d 34 37 c6 bd d0 ad 75 bd d8 98 7a bd
       0.041732125 -0.09678498 -0.059980214 -0.06118092
000200 f8 6c 78 bd f6 23 55 bd 5e 56 5f 3d 1e b3 01 3d
       -0.060650796 -0.05203625 0.054525726 0.03166496
000210 d9 d5 64 3d 6e d5 59 bd 03 9b 0b bd e3 e1 2c bd
       0.055868004 -0.053182058 -0.034083378 -0.04220761
000220 96 a0 de bd 8b 8c dc bd 93 26 8e 3d 1d 6f b9 bb
       -0.10870473 -0.10768994 0.06940951 -0.0056589977
000230 0e 6c 80 bd 6b 4a 2d 3b 76 88 51 bb c7 44 11 bd
       -0.0627061 0.0026442062 -0.0031972206 -0.03546598
000240 7c 50 a2 bd 50 55 94 bd 89 c0 90 3d d5 54 78 bd
       -0.079255074 -0.072428346 0.07067973 -0.060627777
000250 ee f7 e5 3d 8c 14 d4 3d a5 a5 97 3d 42 40 34 bd
       0.112289295 0.103554815 0.07404641 -0.044006594
000260 59 3c d0 bc fc 55 9a bd 97 1f 24 bd dd a7 2c bd
       -0.025419401 -0.075359315 -0.04006919 -0.042152274
000270 fd 6e 3f bd e9 41 25 bd 12 f3 1c 3d d9 68 13 3d
       -0.046736706 -0.04034606 0.038317747 0.035988662
000280 47 87 78 bc 4b 02 8c 3c ca eb 2c 3d 6d b7 c1 bd
       -0.015168971 0.017090937 0.042217053 -0.09458814
000290 16 8d 30 3d eb 73 8c 3d 29 50 e3 3d 31 27 f0 3d
       0.0431033 0.06858047 0.11099274 0.11726225
0002a0 d2 b5 37 3d 2a fb 7d bd 2e c6 eb bd 74 d0 c7 3d
       0.04485113 -0.062007107 -0.11512409 0.09756556
0002b0 20 c4 46 3c a5 f7 d2 bd 16 5f ee bd a6 74 10 bd
       0.012131721 -0.10301141 -0.1163923 -0.035267495
0002c0 5c 3e b8 bd d2 82 7b bc a5 57 81 3d a2 85 d9 3d
       -0.08996269 -0.015351014 0.06315545 0.106211916
0002d0 cf 3c e0 3c 61 65 87 bd 83 80 04 bd a8 2a 31 3d
       0.027372746 -0.06611133 -0.03234912 0.04325357
0002e0 49 1a 18 bc a3 c7 ca bd 1d 31 ee 3d 50 a7 b1 bd
       -0.009283611 -0.09901359 0.11630461 -0.086744905
0002f0 87 2f 82 bd 01 fb 86 3d 39 e5 92 bd ac 89 93 bd
       -0.06356721 0.06590844 -0.07172627 -0.07203993
000300 df 6d bc 3d c8 07 9a 3d 06 29 d0 3d 85 6c 26 bd
       0.09200644 0.075210154 0.101640746 -0.040630836
000310 49 45 83 3d ad 8e 73 3d 2b 00 df 3d 89 e9 0b bb
       0.064096995 0.059462238 0.10888704 -0.0021348915
000320 b0 19 9a 3d 96 d2 07 3d 8c de 59 3d 85 bd c6 3d
       0.07524431 0.033159815 0.053190753 0.09704117
000330 49 e2 23 3d 53 a2 22 3b b0 a5 d7 bd 32 20 ed ba
       0.040010724 0.002481599 -0.10529649 -0.001809126
000340 45 49 d4 bd 88 55 ed 3d 54 b7 62 bd c9 79 c3 bc
       -0.103655376 0.115885794 -0.055350617 -0.023861783
000350 c8 6d 9c 3d 7c c7 9f bc 75 0f d8 bd 26 61 e7 bd
       0.076381266 -0.019504301 -0.10549823 -0.112978265
000360 67 c5 a5 bd df ba 23 bd 6f 6a 06 3d f1 46 b9 bd
       -0.08094292 -0.039973136 0.032816347 -0.09046734
000370 75 13 53 bd a2 ee 4b bd c1 28 6d bd 14 d7 ba 3d
       -0.051532228 -0.049788125 -0.057900194 0.09123054
000380 9b 31 9a bc 89 b7 ec 3d fe 11 db 3d a4 c4 7b 3c
       -0.018822482 0.11558444 0.10696791 0.015366707
000390 40 4f f1 bc 5c c9 06 bd 8e 18 30 3c e8 34 e8 bd
       -0.029456735 -0.032906875 0.010748042 -0.11338216
0003a0 69 d8 dd bd d2 4d d5 bd d4 35 c9 3c b3 08 61 3c
       -0.108322926 -0.10415234 0.0245618 0.013734984
0003b0 dd 37 8f 3d 65 10 a1 3d 2f 3d a6 3d 1a 8e 61 bd
       0.06993077 0.07864455 0.081171386 -0.05506716
0003c0 f9 aa d4 3d 4d 67 f5 bc 1b 39 9b 3d 1c 8b 06 3d
       0.10384173 -0.029956484 0.075792514 0.03284751
0003d0 2d 6a 41 3d a6 ac e7 3d b2 30 ed bd 83 9d 71 3d
       0.047220398 0.11312227 -0.115815535 0.058988106
0003e0 36 92 b2 3d fa 57 f0 bd 14 8e a7 3d fd 10 6e bc
       0.08719294 -0.1173553 0.08181396 -0.0145304175
0003f0 b6 a1 d1 3d f4 76 53 bd 39 47 e2 bd 9a 27 ac bd
       0.10235922 -0.051627114 -0.11048741 -0.08405991

conv2.bias f4 [8]
000000 01 67 8a bc 12 c1 b5 3d 30 c5 58 3c 51 3e 1b 3d
       -0.01689482 0.08874716 0.013230607 0.037901226
000010 de 54 17 bd 5f a9 05 bd e4 df 97 bd 4d 6d c2 3d
       -0.03694617 -0.032632228 -0.074157506 0.09493504

conv3.weight f4 [8, 8, 3, 3]
000000 8f 00 40 bd 78 9e 90 bd d4 2e 50 3d b8 53 b5 bb
       -0.046875533 -0.070614755 0.05082591 -0.0055336617
000010 cf 5a e6 3d 76 36 df 3d f6 1b a6 bd 1d 91 60 bd
       0.11247789 0.108990595 -0.08110802 -0.05482589
000020 94 5a dc 3c 87 31 a2 bd e4 73 d2 3d db 75 8c 3d
       0.02689866 -0.07919603 0.10276011 0.06858417
000030 20 18 dd bd ec 4a 25 3d 7d 86 c7 3c a5 65 b1 bc
       -0.10795617 0.040354654 0.024356121 -0.021654913
000040 9b 2c a7 3d 5b 6a 2b 3d 8a 71 8f 3c 54 0f 51 3d
       0.08162805 0.041849475 0.017510194 0.05104001
000050 92 78 2e 3d 9d 72 54 bd 82 df 8a bd dc 42 7d bd
       0.042595454 -0.051867116 -0.06780912 -0.06183134
000060 d0 bc 1b 3d b7 f1 dc 3d 70 48 0a 3d c6 64 01 3d
       0.038021863 0.10788291 0.033760488 0.031590246
000070 3c 67 ca bd bb 3a c8 3c fa 35 a2 bc 9d dc 78 3d
       -0.09882972 0.024442067 -0.019801129 0.06075727
000080 2d a5 3c 3d 9b 03 27 bd 85 5e b0 3d 5b d1 35 bc
       0.04605596 -0.040774923 0.08611778 -0.0110972775
000090 dd 58 d9 3d a0 51 ce 3d 75 e7 53 bd 37 24 8e 3d
       0.106126525 0.100741625 -0.051734407 0.06940501
0000a0 ec 52 5f bd 03 a5 a6 bc 06 e3 a5 bb 1c 78 e9 3d
       -0.05452244 -0.020342356 -0.0050624637 0.11399862
0000b0 46 c3 15 bd 3e d6 d1 3d 8f 39 c9 bd 3e fc c5 3d
       -0.03656318 0.102459416 -0.098254316 0.09667252
0000c0 01 6a ae 3d 1f f9 2f 3d d2 18 3a 3d d5 45 a1 3b
       0.085163124 0.04296219 0.045433827 0.0049216547
0000d0 9f db ba bd f0 1b 01 3c 45 05 9f 3d c4 ff dd 3d
       -0.09123921 0.007880196 0.07764677 0.10839799
0000e0 af 57 90 bd 24 3b bc bc 48 b4 15 bd a7 0c 99 3d
       -0.07047974 -0.02297742 -0.036548883 0.07473116
0000f0 6d bf e2 bd 81 4a 74 bd 3f c4 cf 3d cf a2 39 bd
       -0.11071668 -0.059641365 0.10144853 -0.045321282
000100 bd 49 2a 3d e4 fd 52 3c bc 58 cb bd 91 d9 25 bc
       0.04157423 0.012877915 -0.09929034 -0.010122673
000110 17 06 e3 3d 40 d8 70 3d 52 6f dd bd 79 fd ee bc
       0.11085146 0.058799982 -0.10812248 -0.0291736
000120 b0 20 ef bb 38 6b 28 3c d6 b8 93 bd 56 dd 1e bd
       -0.007297598 0.010279469 -0.07212989 -0.0387853
000130 b7 98 a4 bd 58 0f a1 bd 08 bf e7 bc c0 8a 6a bb
       -0.080369405 -0.07864255 -0.028289333 -0.0035788268
000140 93 39 9d 3d a5 26 ae 3d 48 c8 10 bd 68 48 13 3c
       0.07676997 0.085034646 -0.035347253 0.008989431
000150 a3 91 ed 3d b2 08 4f 3d 19 fc d2 3d 10 64 df bd
       0.116000436 0.050545402 0.1030199 -0.10907757
000160 09 09 df 3d f6 d9 a4 bd 6c df e4 3c 26 3e 2d bd
       0.10890395 -0.08049385 0.027938567 -0.042295597
000170 b4 98 c4 3c 13 37 c0 3d 15 54 b0 3d cd d1 cf 3d
       0.023998596 0.093855046 0.086097874 0.10147438
000180 1c 10 01 bd 5c bf c5 bc 61 23 ab bd 91 99 8e bd
       -0.031509504 -0.024139099 -0.08356357 -0.06962884
000190 cd 1d ec bd 14 02 89 bd 4c 80 bd 3c 26 0c cb bd
       -0.115291215 -0.066898495 0.023132466 -0.099144265
0001a0 c6 8c 76 3d b8 13 76 bc 62 cf d1 bd cc fb bd bd
       0.060192846 -0.01501935 -0.10244633 -0.09276542
0001b0 9f 28 e5 3d e6 c1 16 3d 10 f7 52 bd 2a b3 42 bd
       0.111893885 0.03680601 -0.05150515 -0.047534145
0001c0 72 5f 03 3d 1c b0 a5 bd 60 40 96 bb ec 3f f2 3c
       0.032073446 -0.08090231 -0.004585311 0.029571496
0001d0 38 fa 96 bd 09 4c d8 3d 73 08 eb 3d 19 14 d2 bd
       -0.07371944 0.105613776 0.11476221 -0.102577396
0001e0 7e b2 50 3d 0e 3a 78 3d 54 07 e2 3c ea 2b db bd
       0.050951473 0.06060224 0.027591385 -0.10701735
0001f0 e8 3f 6e 3c cd 59 ee 3d 68 df 6f bc 34 15 8c 3c
       0.014541604 0.11638222 -0.014640667 0.017099954
000200 98 39 5f 3c 35 6e db bd d3 c4 b1 3d 86 64 0f bd
       0.013624571 -0.1071438 0.08680119 -0.035007976
000210 24 9d ae bc 77 63 92 3d 43 bb e0 bd c6 32 54 3d
       -0.021315165 0.07147878 -0.10973217 0.051806234
000220 f8 df 74 bc a0 ec 46 bd 94 4a 93 bd 64 95 52 bd
       -0.014945976 -0.048565507 -0.07191959 -0.051412
000230 52 30 63 3d 5d 6d bc 3d 49 ae 8a bd bc 2a c7 bc
       0.055466004 0.09200547 -0.067715235 -0.02431237
000240 ff 55 24 3c ff 35 e0 bc c9 dd 3a bc 6d 09 c5 3d
       0.010030269 -0.027369497 -0.011405417 0.096209385
000250 1f f9 f0 ba 72 ff 9c bc f7 b2 d6 bc 7a 81 cd 3d
       -0.0018384791 -0.019164775 -0.026208384 0.10034461
000260 4c 26 7d 3d e1 b8 db bb 05 65 ba bc 9c be ed 3d
       0.0618041 -0.006705389 -0.022753248 0.116086215
000270 af 74 86 bd db f6 98 bc 56 f1 49 3c 78 00 1f bb
       -0.065652244 -0.018672397 0.012325605 -0.0024261754
000280 4a 78 8f bd 0c 10 3e bd f5 1e 6f 3d 28 a2 4f bc
       -0.07005365 -0.046402022 0.058379132 -0.012672938
000290 86 2e a4 3d fa df 3f 3d bb 1b 3e 3d 84 25 ae 3d
       0.08016686 0.04684446 0.046413165 0.08503249
0002a0 a7 4b 8a 3d 45 ca 2c bd ad ef f8 3c 7a 93 a8 bd
       0.06752711 -0.042185087 0.030387724 -0.08231254
0002b0 06 70 cd 3c 55 2a 7a 3d cb 15 74 bc 5e 97 18 3d
       0.025077831 0.061075527 -0.014897774 0.03725373
0002c0 a1 6d 74 bd 66 58 2c bd cd a2 e4 3d 20 9e e5 3d
       -0.059674863 -0.04207649 0.11163864 0.112118006
0002d0 55 48 5e 3d b5 e3 bf bd a5 08 7e 3c ef 2a 92 bd
       0.0542682 -0.093696035 0.015504991 -0.07137095
0002e0 1b c6 a2 3c ab 73 4e bc 95 ef 88 3d 28 de d7 bc
       0.019869855 -0.01260082 0.06686322 -0.02635105
0002f0 41 d5 bc bd 97 14 2e bc e3 36 a7 3d 34 22 2c bc
       -0.092203625 -0.010625026 0.08164766 -0.010506202
000300 ca 96 b6 3c 2b 7c ec 3d 28 1b ed bd 5f bb c4 3c
       0.022288699 0.11547121 -0.11577445 0.024015127
000310 bb 00 86 bd 71 39 91 3d e1 4f 91 3d 78 24 37 3d
       -0.06543108 0.07091034 0.07095314 0.044712514
000320 92 92 a4 3d 80 5e 05 bd c5 5b 82 bc e0 88 ec bd
       0.080357686 -0.032560825 -0.0159129 -0.11549544
000330 3c f1 92 3d 41 49 b9 bd a9 ea d7 bd 72 7b 10 bd
       0.07174918 -0.09047175 -0.10542805 -0.035273977
000340 53 0a 7a 3c a0 ac a4 3d 06 7d a6 bb e4 2c c2 bc
       0.015261251 0.08040738 -0.005080822 -0.023703046
000350 67 3e bc 3c 70 f4 c4 3d a1 85 41 bc 6e 51 3b bd
       0.022978975 0.09616935 -0.011811645 -0.045731954
000360 99 4c b7 3d b0 2d 8f 3d ec 5e 8b 3c 95 e8 b9 3d
       0.08950157 0.06991136 0.017013036 0.090775646
000370 96 02 7c bd c6 1d b0 3d 91 98 8f bb c1 a1 56 bc
       -0.061525904 0.08599429 -0.004382201 -0.013100089
000380 2d 44 aa bd d9 7f 40 bd 5a 9e 35 3d 36 06 6c 3d
       -0.08313785 -0.046996925 0.04434047 0.05762311
000390 f9 d4 5f bd a6 ca df 3d bb 42 e9 3d 05 98 9a bc
       -0.054646466 0.10927324 0.11389681 -0.018871317
0003a0 fa 99 d1 bd 7d 13 85 3d 5a 95 81 bd 48 7a e7 3c
       -0.10234447 0.06497858 -0.06327315 0.02825655
0003b0 f3 55 5a bc aa 99 aa bc ed 57 58 bd e2 fa cc bd
       -0.013326156 -0.020825226 -0.052818228 -0.100087896
0003c0 fe 7a f3 3c b0 85 ff bc 8f 89 2e bd 67 66 da 3d
       0.029721733 -0.031191677 -0.042611655 0.10664063
0003d0 4f 2c 51 3d 13 f5 e9 3d e1 9b 01 bd 27 06 98 bd
       0.051067647 0.11423697 -0.0316428 -0.074230485
0003e0 a8 85 ac bd c2 bf ff bc d4 57 60 bd 3d 2b ca 3d
       -0.084239304 -0.031219367 -0.05477126 0.09871528
0003f0 bd 8c 66 bd 9a 3e 79 3d ff bf be 3c 3b 99 cc bd
       -0.056286562 0.060850717 0.02328491 -0.09990164

conv3.bias f4 [8]
000000 36 d9 46 3d 90 36 ad bd 85 b8 16 3d b1 a2 8e 3d
       0.048546992 -0.084576726 0.036797065 0.06964625
000010 39 15 ab bc 2d b9 69 bd 2e a6 0b bd a6 3b 01 3d
       -0.020884143 -0.057061363 -0.03409403 0.031551026

conv4.weight f4 [3, 8, 3, 3]
000000 cc 8b 81 bd 17 ab 8d bd 02 89 2a bc 56 92 b1 3d
       -0.06325492 -0.069173984 -0.010408642 0.086704895
000010 51 d6 1b 3d 6c de 36 bc 4d 6b cb bd c7 99 3e 3d
       0.038046185 -0.011161428 -0.099325754 0.046533372
000020 ac 5b d6 bc 48 c4 53 3c 8d 0b 8e 3d df 60 ac 3d
       -0.02616676 0.012925215 0.06935797 0.08416914
000030 8f 5e c7 3d f2 ad eb bd 2d 99 c0 3d 59 d4 e6 bd
       0.097348325 -0.11507787 0.09404216 -0.11270971
000040 d4 25 73 bd e0 18 ed bc 7d f6 c8 3d 79 3b b9 bd
       -0.059362248 -0.028942525 0.09812639 -0.09044547
000050 d7 b3 01 3d f2 ac f8 3d 25 c1 6e bd 28 67 32 bd
       0.03166565 0.12142362 -0.058289666 -0.04355541
000060 b8 db 7a 3d 5e 5d 06 3d 2c 81 49 bd 49 e2 1e bd
       0.061244696 0.032803886 -0.049195454 -0.03879002
000070 41 a4 30 3d ee 8f b3 bd c6 08 57 bb c0 7e 64 3d
       0.043125395 -0.08767687 -0.0032811626 0.05578494
000080 1c e0 73 3d e3 13 c0 bd d5 04 d0 bd 0b b6 cb bd
       0.0595399 -0.09378793 -0.10157172 -0.09946831
000090 02 36 c0 bd 26 6d de bd dd 26 ee 3d ad 79 82 3d
       -0.09385301 -0.10860662 0.11628506 0.06370864
0000a0 79 32 1f bc 90 00 84 bc ce b2 15 bd d3 c5 69 3d
       -0.009716623 -0.01611355 -0.036547475 0.057073426
0000b0 e3 02 10 bd 22 f9 32 3d 67 57 e7 3d ba 0d 18 bd
       -0.035159003 0.043694623 0.112959675 -0.037122466
0000c0 22 3c bc bd 5b 02 dd 3d 40 16 2b 3b 7a a3 82 bd
       -0.09191157 0.10791465 0.0026105791 -0.06378837
0000d0 a6 95 d7 bd 46 7f 1a 3d b1 9b eb bd e2 ad 40 bd
       -0.1052659 0.037719034 -0.11504305 -0.047040828
0000e0 06 3f 79 bc a5 bb 54 bd 17 a1 c9 bd 71 89 96 bd
       -0.01521278 -0.051936764 -0.098451786 -0.073504336
0000f0 bb f8 d3 bc 35 b5 df bd 3d 70 b5 3d 95 26 6f bd
       -0.02587544 -0.109232344 0.088592984 -0.058386404
000100 9d bd 9c 3c 53 16 54 bd e2 4b 9a bc b7 53 c0 3d
       0.019133383 -0.051779103 -0.018835012 0.09390967
000110 17 63 e2 bc 7c 31 dc 3d 31 d5 0b bd ef 78 2b bd
       -0.02763514 0.10751626 -0.034138862 -0.041863378
000120 11 cf bb 3d 54 03 94 bd 41 5e 9c 3d 2b 7a 80 bd
       0.09170354 -0.07227197 0.07635165 -0.06273302
000130 00 ed e1 3d c5 eb cc 3a 54 bd 6e bd 2d 5e 29 3d
       0.11031532 0.001563423 -0.058286026 0.04134958
000140 62 08 d5 3d 82 07 00 bd 98 ad 3b bd 9a 65 da bd
       0.104019895 -0.03125716 -0.04581985 -0.1066391
000150 42 2d 1d 3d 32 16 3a bd d9 b6 a6 3d 20 de 61 bc
       0.03837324 -0.045431323 0.08140344 -0.013785869
000160 3d 1c dc 3d 8e 4e 00 3d 3a 57 00 3d 8a 2c cf bc
       0.107475735 0.031324916 0.031333186 -0.025289793
000170 85 60 13 bd b6 d3 bc 3c 28 88 1e bd cd a3 98 bd
       -0.03598072 0.02305017 -0.038704067 -0.074531175
000180 67 86 11 bd 69 0a ad 3c e8 fe e9 bd e9 b9 35 bd
       -0.035528567 0.021123128 -0.11425573 -0.04436675
000190 5a ee 75 3d c9 cb dc 3d 1a 9a a2 bd de 77 95 3d
       0.060041763 0.107810564 -0.07939549 0.072982535
0001a0 e5 98 a9 3d 37 cf d5 3d cd fe 60 bc 95 b2 9d 3d
       0.082811154 0.10439914 -0.013732624 0.077000774
0001b0 46 33 5e 3d d9 d0 44 3d ed 2d 73 3d 8a af fc 3b
       0.054248117 0.048050735 0.05936997 0.0077113556
0001c0 34 17 5d 3d bf c7 aa 3d 0f 08 da 3d c8 86 bb bd
       0.053977206 0.0833888 0.10646068 -0.09156567
0001d0 02 8e a7 bd 6c ef 1d bd 8e 77 81 bd 57 fa 62 bd
       -0.08181383 -0.03855841 -0.06321631 -0.055414524
0001e0 f6 bf 16 bd 28 58 d5 bd 34 f5 cb 3c 70 e4 ca bc
       -0.036804162 -0.10417205 0.024897195 -0.02476713
0001f0 a4 5d 98 bd d0 c8 a4 bb 3f 94 97 bd b2 0b ae bd
       -0.074397355 -0.0050288215 -0.074013226 -0.084983245
000200 bd 5e 92 3d 0a d4 90 bd 10 85 d3 bd 5b 55 c0 bd
       0.07146976 -0.07071693 -0.10328114 -0.0939128
000210 7d 36 dd bd 77 79 22 bc 8e cb 5d bd 56 c2 00 3d
       -0.108014084 -0.009916655 -0.054149203 0.031435333
000220 94 c6 03 bd e9 d2 e2 3d 20 1c 14 3c 12 f9 b4 bd
       -0.0321718 0.11075384 0.009039909 -0.08836569
000230 ac 69 14 bc 1d 08 d9 bd 7e 9b 88 3d ad 97 6f bd
       -0.009058397 -0.105972506 0.06670283 -0.05849426
000240 64 44 ec bd 6e 09 92 3d 71 ca 50 bd 7d a7 96 bd
       -0.11536482 0.07130705 -0.050974313 -0.073561646
000250 83 3d a1 3d 58 d7 f1 3b 27 09 c6 3d 8c 36 e9 bc
       0.078730606 0.0073804073 0.096697144 -0.028468393
000260 cf 2f e1 bd 55 35 ce 3d 00 cd bb bb 76 96 ed bd
       -0.10995447 0.10068766 -0.005731225 -0.11600964
000270 80 81 8f 3a 4d 8d d2 bd f8 1c e0 bc 63 6d da bd
       0.0010948628 -0.10280857 -0.027357563 -0.10665395
000280 8a 92 78 3d 96 4f 4f 3d ee 38 c7 3d 4b 79 c5 3b
       0.060686626 0.05061301 0.09727655 0.006026422
000290 0c 4c aa 3d 65 8a 2e bd 90 87 a5 3d a4 f9 fd bd
       0.08315286 -0.042612452 0.08082497 -0.12401131
0002a0 ca 13 5a bc c4 03 9a bd a3 1f 25 3d c8 37 b3 3c
       -0.013310382 -0.075202495 0.040313374 0.021877185
0002b0 71 f1 72 bd f9 10 57 3d ff d6 46 bd 2c b8 cb bd
       -0.059312288 0.05250642 -0.04854488 -0.09947237
0002c0 f4 01 2b 3d 2e fe ad bd 69 4b a2 bc f4 90 e6 bd
       0.04174991 -0.084957466 -0.019811349 -0.11258116
0002d0 fd 34 c6 3d 4f 6a 84 3c 1d 59 eb 3d 31 51 8f 3c
       0.096780755 0.016163973 0.114916064 0.01749477
0002e0 b5 d4 e8 3d e8 75 a3 3b 70 80 b9 bd 16 15 8e bb
       0.11368696 0.0049884208 -0.09057701 -0.0043360097
0002f0 9e b0 b6 3d 1e 79 33 3d ac 46 da 3c 96 19 28 3d
       0.08920406 0.04381668 0.026645027 0.041040026
000300 3d 4c f1 bd 52 e3 e5 bd 89 47 9d 3d 30 a8 f9 bb
       -0.117821194 -0.112249985 0.0767966 -0.0076189265
000310 0a e9 c5 bd fd e2 ac 3d 31 ed 82 3d f5 88 a8 3d
       -0.09663589 0.08441732 0.06392897 0.082292475
000320 4d e2 ef bd c8 3e bf bd d4 e6 c2 bd ad 45 ce bd
       -0.11713085 -0.093381464 -0.09516683 -0.10071883
000330 65 4b bc bd 48 77 93 bd f3 b3 67 bd 2f be ae bd
       -0.09194068 -0.072004855 -0.056568097 -0.085323684
000340 16 ef d7 3d 32 d6 82 3d 0b 71 f0 bd 3b e8 37 3d
       0.10543649 0.06388511 -0.11740311 0.044899207
000350 b6 eb 35 3d ad 4b bf 3d 37 3f 8d 3d a4 9a be 3d
       0.044414245 0.09340606 0.06896823 0.09306839

conv4.bias f4 [3]
000000 a7 77 1c 3e bb 75 b2 bd ae 13 e2 bd
       0.15280019 -0.087138616 -0.1103891
