checkpoints/checkpoint.pt (torch, 8493 bytes, 8 tensors)

conv1.weight f4 [8, 1, 3, 3]
0	0x3e3bb72a	0.1833159
1	0xbd6de549	-0.05807999
2	0x3de6ab0a	0.11263092
3	0x3e9ba66a	0.304004
4	0x3dab220f	0.083561055
5	0xbde6198f	-0.11235344
6	0x3e45115a	0.192449
7	0x3b9d1be5	0.004794585
8	0xbe0cf28d	-0.13764401
9	0xbe53129d	-0.20612569
10	0xbe8eb5cf	-0.27873084
11	0x3e252fda	0.16131535
12	0xbe9ac71e	-0.3023004
13	0x3e8183f2	0.2529598
14	0xbbe149d5	-0.0068752565
15	0x3deeb413	0.1165544
16	0x3e21d8df	0.15805386
17	0xbe552596	-0.20815119
18	0x3e99548f	0.29947326
19	0xbe3b44d5	-0.18287976
20	0xbd55401a	-0.052063085
21	0xbe30c11a	-0.17261162
22	0xbd568a9d	-0.052378286
23	0xbe8f0e4d	-0.27940598
24	0x3e7c672b	0.2464873
25	0xbe11867b	-0.14211456
26	0x3e036549	0.12831606
27	0x3e1a39fe	0.15061185
28	0xbd450303	-0.048098575
29	0xbc59a2fc	-0.013283487
30	0xbe8ec243	-0.27882585
31	0x3e3257fa	0.17416373
32	0xbe2957dc	-0.16537422
33	0xbe34a9ab	-0.17642848
34	0x3e4f0706	0.20217523
35	0x3da2305d	0.07919381
36	0x3e842f1a	0.25817186
37	0xbe201f35	-0.15636905
38	0x3e8eea3b	0.2791308
39	0x3ead40e4	0.3383857
40	0xbdc2df9e	-0.09515308
41	0xbe8fa2e2	-0.28053957
42	0x3e8ad9e1	0.27119353
43	0x3e98e2e3	0.298606
44	0xbda1b5e6	-0.078960225
45	0xbea6d4f0	-0.32584333
46	0x3c7236a3	0.014783534
47	0xbd91a784	-0.07112029
48	0x3d9da102	0.076967254
49	0xbe1c16db	-0.15243094
50	0xbdd63cc7	-0.10460811
51	0x3d6c9053	0.057754826
52	0x3e39697b	0.18106644
53	0x3e89f171	0.26942018
54	0x3d86b6e9	0.06577856
55	0xbe5b0039	-0.21386804
56	0xbe99c998	-0.30036616
57	0xbe51ed1f	-0.20500611
58	0x3e8eee93	0.27916393
59	0xbe58ef16	-0.21184954
60	0x3e2c6566	0.16835555
61	0x3e8c5d51	0.27414945
62	0x3d14230a	0.03616623
63	0xbdf1c977	-0.118060045
64	0xbeaa67d0	-0.33282328
65	0xbe40ce2c	-0.18828648
66	0x3ea6553b	0.324869
67	0x3e2f26be	0.17104623
68	0xbd7341a9	-0.05938879
69	0x3e40cf95	0.18829186
70	0xbdd7428e	-0.10510741
71	0x3b09f50a	0.0021050596

conv1.bias f4 [8]
0	0x3e90b294	0.28261244
1	0xbbe7b640	-0.0070712864
2	0x3e4ce738	0.20010078
3	0x3d8ba403	0.06818392
4	0x3e28d432	0.16487196
5	0x3e2347a0	0.15945292
6	0x3e773430	0.24141002
7	0xbca132a5	-0.01967747

conv2.weight f4 [8, 8, 3, 3]
0	0x3dd4a5e3	0.10383203
1	0xbc800f15	-0.015632192
2	0x3dcdeb2d	0.10054622
3	0x3ddfed86	0.10933976
4	0x3cdcbef3	0.02694652
5	0x3d829cf8	0.06377596
6	0xbd8ac64e	-0.06776105
7	0x3d2e04a1	0.042484883
8	0xbc81246b	-0.015764436
9	0x3db591ca	0.08865698
10	0xbd755ba7	-0.05990186
11	0xbd8551e1	-0.06509758
12	0xbdae152f	-0.08500134
13	0xbd66215a	-0.05618415
14	0xbd96e3b1	-0.073676474
15	0xbdd4eae6	-0.10396366
16	0x3d6452f1	0.05574316
17	0x3d511121	0.051041726
18	0x3d1135f1	0.035451833
19	0xbd8d31b0	-0.06894243
20	0xbd8b64a2	-0.068063036
21	0x3dd53098	0.10409659
22	0x3c99856f	0.018740384
23	0xbd65565b	-0.055990558
24	0xbd69b766	-0.057059668
25	0xba847ce4	-0.0010108021
26	0xbd3b9708	-0.04579833
27	0x3dd09a92	0.10185732
28	0x3beb0daa	0.0071732597
29	0xbda3a5bc	-0.07990596
30	0x3b9310a4	0.0044880677
31	0x3d5b6cb7	0.053570475
32	0x3dedaa0c	0.116046995
33	0x3da8d849	0.08244378
34	0x3cd43f56	0.025909107
35	0xbd3bea61	-0.045877818
36	0x3dcb6a81	0.099324234
37	0xbcc3ebb7	-0.023916109
38	0x3be60987	0.0070201787
39	0x3c985bb6	0.018598419
40	0xbcc340c0	-0.023834586
41	0xbcd119df	-0.025525032
42	0xbd991e4c	-0.07476482
43	0x3d11f361	0.035632495
44	0xbcc89dab	-0.024489244
45	0x3ca5a82a	0.020221788
46	0xbdd8c84f	-0.10585081
47	0x3db94779	0.090468355
48	0xbc0dd264	-0.008656118
49	0xbd37299f	-0.044717427
50	0xbdcf78ce	-0.101304635
51	0x3dabba79	0.08385176
52	0xbdde5e0a	-0.1085778
53	0xbd94dad8	-0.07268304
54	0xbd6419bd	-0.05568861
55	0x3becd8a1	0.0072279726
56	0x3da16c14	0.078819424
57	0x3d101642	0.035177477
58	0x3dcc8a32	0.09987296
59	0xbdd5b581	-0.1043501
60	0x3d7f08a8	0.062264115
61	0x3de3a30b	0.11115082
62	0xbda7e902	-0.081987396
63	0xbd8eb158	-0.069674194
64	0xbd989a21	-0.07451273
65	0x3db2cad3	0.08730092
66	0xbd2dce72	-0.04243321
67	0xbc333c88	-0.010939725
68	0x3dd8b56d	0.10581479
69	0x3cb3b05f	0.021934686
70	0x3d4997db	0.049217086
71	0x3d3abf5a	0.045592643
72	0xbd4ae8f1	-0.049538556
73	0x3cc29462	0.023752395
74	0x3db6a0b1	0.08917368
75	0x3da10b95	0.07863537
76	0x3d7f14a2	0.062275536
77	0xbdb59d9b	-0.088679515
78	0x3c297c75	0.010344614
79	0x3dde4daf	0.10854661
80	0x3df7e1a0	0.121035814
81	0x3c03871c	0.008027818
82	0xbc679ab0	-0.0141360015
83	0x3d4c85e5	0.04993238
84	0x3c117c11	0.008879677
85	0x3dd0cae8	0.10194951
86	0xbda29cbf	-0.07940053
87	0xbc43e577	-0.011956564
88	0x3dea3623	0.11436107
89	0x3d8eca96	0.06972234
90	0xbdafb1eb	-0.08578857
91	0x3dc50f67	0.096220784
92	0x3d9d3f52	0.07678093
93	0x3daf29da	0.085529044
94	0xbce06f83	-0.027396923
95	0x3dcd3e04	0.10021594
96	0xbcf9df81	-0.030502083
97	0xbd56201a	-0.05227671
98	0xbc9450a5	-0.01810486
99	0x3d8855d5	0.06656996
100	0x3deee5b0	0.11664903
101	0xbd0e0ae9	-0.034678373
102	0x3d117afe	0.035517685
103	0xbd423950	-0.04741794
104	0xbcc0fe50	-0.023558766
105	0xbc9c9dc3	-0.019118195
106	0x3d5f1ee4	0.05447282
107	0x3d76aa0f	0.060220774
108	0x3d0f5ba1	0.034999494
109	0xbc496012	-0.012290971
110	0xbd868577	-0.06568425
111	0x3d1569f2	0.03647799
112	0x3cebe4a4	0.028795548
113	0xbd9ff6eb	-0.07810768
114	0x3de60011	0.112304814
115	0x3bb113f0	0.005403988
116	0x3cbe2978	0.023213133
117	0x3d25e702	0.04050351
118	0x3d80c557	0.062876396
119	0x3c316270	0.010826692
120	0xbd2be343	-0.04196478
121	0x3cefc679	0.029269444
122	0xbd80cb2e	-0.062887534
123	0x3d385e85	0.045012016
124	0x3c951b0b	0.018201372
125	0x3d973b06	0.07384305
126	0xbdb5db7c	-0.08879754
127	0xbdd6c41c	-0.10486624
128	0x3cdf38de	0.027248796
129	0x3d09f93e	0.03368496
130	0x3dc6631c	0.09686872
131	0x3c15cbde	0.009142844
132	0xbd8c357f	-0.06846141
133	0xbd6eff03	-0.058348667
134	0xbd5e9e85	-0.054350395
135	0x3d6f6eec	0.058455393
136	0x3c0fd10d	0.008777869
137	0x3b75b301	0.0037490728
138	0xbd36e745	-0.04465415
139	0xbd0a2940	-0.033730745
140	0xbda4f8e6	-0.08055286
141	0xbd85724a	-0.065159395
142	0x3cd9cc28	0.026586607
143	0x3d9eae36	0.07748072
144	0xbb9eb2d3	-0.004843095
145	0xbb79ca42	-0.003811494
146	0xbdc4c087	-0.09607034
147	0x3d9dfce5	0.077142514
148	0xbd15b307	-0.036547687
149	0xbe03d495	-0.12874062
150	0xbcbe3dba	-0.023222793
151	0xbda22036	-0.079163
152	0xbcbb6abb	-0.022878041
153	0xbdd5d190	-0.104403615
154	0xbdd343c7	-0.10315662
155	0xbd87dc11	-0.06633771
156	0xbd31ebfe	-0.04343795
157	0x3de5bf3f	0.11218118
158	0x3dcd7a46	0.100330874
159	0x3c2857c4	0.010274831
160	0xbdceeb59	-0.10103483
161	0xbd7c177f	-0.061545845
162	0x3d280e09	0.04102901
163	0x3dd98fdd	0.10623143
164	0xbd59506d	-0.053055216
165	0xbd7d5231	-0.061845962
166	0x3de8b7e1	0.11363197
167	0x3d8dfe2f	0.06933247
168	0xbb6de8bc	-0.003630205
169	0x3cc055ed	0.023478473
170	0x3dfe9ddd	0.12432454
171	0x3cd927cc	0.026508234
172	0x3d52b1b2	0.051438995
173	0x3dd154d3	0.10221257
174	0xbaeea6c0	-0.0018207654
175	0xbdbce38b	-0.09223088
176	0xbce3e196	-0.027817529
177	0xbca4db2d	-0.020124042
178	0x3df183c5	0.11792711
179	0x3d98b498	0.074563205
180	0xbd4f3098	-0.050583452
181	0x3d3492c2	0.04408527
182	0x3d87da88	0.066334784
183	0x3d8407da	0.0644681
184	0xbc101d8c	-0.008796107
185	0xbc774d8d	-0.015094173
186	0x3d95590e	0.072923765
187	0x3c8e6110	0.017380267
188	0xbdccad70	-0.09994018
189	0xbca8e4db	-0.02061694
190	0x3d48015f	0.048829433
191	0x3ced7fb1	0.028991552
192	0xbcc1ddc5	-0.023665318
193	0xbba874b4	-0.005140865
194	0xbc40473f	-0.011735736
195	0xbdc13e1a	-0.09435673
196	0x3d6f2c31	0.058391754
197	0xbd39f953	-0.04540379
198	0x3dcd251d	0.100168444
199	0x3de76c0c	0.11299905
200	0xbdc6b24c	-0.09701976
201	0xbdc335bb	-0.09531733
202	0xbca847cf	-0.020542054
203	0xbd53393a	-0.051568247
204	0x3e05e7ad	0.13076659
205	0x3d877af3	0.066152476
206	0xbd1165aa	-0.035497345
207	0x3cafe7a9	0.021472769
208	0x3ded47c7	0.11585956
209	0xbcdc31af	-0.02687916
210	0x3de37edc	0.11108181
211	0x3da5c463	0.080940984
212	0x3d2e6bdd	0.042583335
213	0x3c840b74	0.016118743
214	0xbce88756	-0.028384846
215	0xbdb27d00	-0.08715248
216	0x3bdeedb9	0.006803241
217	0x3d097d92	0.03356702
218	0x3dbec06e	0.09314047
219	0x3c77d582	0.015126588
220	0x3c8a1fb3	0.016860818
221	0xbcc27671	-0.023738118
222	0x3dcf6954	0.101275116
223	0xbda64d20	-0.08120179
224	0x3dd42170	0.1035794
225	0x3dd61d30	0.10454786
226	0x3d521c7c	0.051296696
227	0x3d927e5d	0.07153008
228	0x3db56127	0.08856421
229	0xbcb007cd	-0.021488095
230	0xbd387906	-0.045037292
231	0xbd3ecc01	-0.046581272
232	0x3c868309	0.016419904
233	0xbce17a65	-0.027524183
234	0x3d8fa170	0.07013214
235	0xbdaec661	-0.085339315
236	0xbd1b949a	-0.037983514
237	0xbd6f99fb	-0.058496457
238	0x3d5b311b	0.053513627
239	0x3d5983e8	0.05310431
240	0x3da63565	0.08115653
241	0xbdf654f3	-0.120279215
242	0x3d10668d	0.03525405
243	0xbdca5711	-0.09879888
244	0xbce9ffc5	-0.028564343
245	0x3c9ef58b	0.019404193
246	0xbd9fb4cd	-0.07798157
247	0x3ddcbe34	0.10778466
248	0xbd19d331	-0.037554923
249	0xbd0fdf58	-0.035125107
250	0x3de57e68	0.11205751
251	0x3d018d02	0.031628616
252	0x3dbfde73	0.09368601
253	0xbd80bc04	-0.06285861
254	0x3d8bc0d4	0.068238884
255	0xbc93366e	-0.01797029

conv2.bias f4 [8]
0	0xbd9b85e6	-0.075938985
1	0x3bdfdb7d	0.006831585
2	0x3db28ed3	0.08718648
3	0x3d06aa9d	0.032877553
4	0x3c96e928	0.018421724
5	0x3d932e79	0.07186598
6	0x3d7696fa	0.060202576
7	0x3ca5be94	0.020232476

conv3.weight f4 [8, 8, 3, 3]
0	0x3d3a34d1	0.045460526
1	0x3ad6f63b	0.0016400287
2	0x3cefe6c2	0.029284839
3	0xbcef562a	-0.02921589
4	0xbd936624	-0.07197216
5	0xbce08161	-0.027405443
6	0x3ce6dc26	0.028181147
7	0x3d9bcf4a	0.076078966
8	0xbddd0a06	-0.107929274
9	0xbdd09bd2	-0.1018597
10	0x3da2c724	0.07948139
11	0xbcb4ef51	-0.022086771
12	0xbb649260	-0.0034877285
13	0x3d05a600	0.032629013
14	0x3da3687d	0.07978914
15	0x3d4cddbc	0.05001615
16	0xbd91edc7	-0.071254306
17	0xbda68ecb	-0.08132704
18	0x3ca89085	0.020576725
19	0xba6642db	-0.0008783766
20	0xbc828d57	-0.015936537
21	0xbd645ab5	-0.055750567
22	0x3df14ec4	0.117826015
23	0xbdd821f9	-0.10553355
24	0x3d918e6d	0.07107244
25	0x3d85b586	0.065287635
26	0x3df1fef0	0.118162036
27	0xbc17516b	-0.00923572
28	0xbbb225ef	-0.005436651
29	0xbc4521bb	-0.012031968
30	0x3bac81b9	0.0052644876
31	0x3dde89d4	0.108661324
32	0xbd2696cb	-0.04067115
33	0x3bf44ed9	0.0074556884
34	0xbceeeadb	-0.029164722
35	0x3bdfb684	0.0068271775
36	0x3d360334	0.04443665
37	0x3d07388c	0.03301291
38	0xbde1e986	-0.11030869
39	0x3d80157e	0.06254099
40	0xbd3073d0	-0.043079197
41	0xbda46c3e	-0.08028458
42	0x3d08cd6f	0.03339904
43	0x3d12e823	0.035865914
44	0x3c469434	0.012120295
45	0xbc0707cc	-0.008241605
46	0x3d7238ff	0.059136387
47	0xbc5ebf2c	-0.013595384
48	0x3d7f277b	0.06229351
49	0xbba379e4	-0.0049888957
50	0x3d8323cd	0.06403313
51	0x3dc4c627	0.09608107
52	0x3d912c25	0.07088498
53	0xbd12bd1e	-0.035824887
54	0x3d79d504	0.060994163
55	0x3d9be366	0.07611732
56	0x3d8c4922	0.068498865
57	0x3cdd0586	0.026980173
58	0x3d57e34b	0.052706998
59	0xbd9fa1e3	-0.07794549
60	0xbd04c57f	-0.03241491
61	0x3ca94a0a	0.020665187
62	0xbd85d68c	-0.06535062
63	0xbdde288f	-0.1084758
64	0x3d8f4e18	0.06997317
65	0x3cf8ad49	0.030356066
66	0xbccc3ee9	-0.024932342
67	0x3d32e62c	0.04367654
68	0xbc938852	-0.018009339
69	0xbd1c78b2	-0.03820104
70	0x3d201c09	0.039089236
71	0x3cc237f4	0.023708321
72	0xbc404138	-0.011734299
73	0xbc2ca024	-0.010536227
74	0x3d41a132	0.04727287
75	0xbda482dd	-0.08032773
76	0x3dbb1a9e	0.09135936
77	0x3dbf9b4f	0.09355795
78	0x3cae6cc3	0.021292096
79	0xbcc2bb35	-0.023770908
80	0xbdbbecae	-0.091760024
81	0xbd8101de	-0.06299184
82	0xbd157af8	-0.036494225
83	0x3ccda7e7	0.025104476
84	0x3d9d01d4	0.07666364
85	0x3dc95297	0.09830206
86	0x3d79a462	0.060947783
87	0x3dc1d2fc	0.0946407
88	0xbc456ff8	-0.012050621
89	0xbd75a3f4	-0.05997081
90	0xbdccecf7	-0.10006135
91	0xbdaac0f5	-0.08337585
92	0x3d15e135	0.036591727
93	0x3c321edd	0.010871616
94	0xbc084e77	-0.008319489
95	0x3dac25f0	0.084056735
96	0xbd636e7c	-0.055525288
97	0xbd82eb0b	-0.06392487
98	0xbd87e902	-0.066362396
99	0xbd44f6c3	-0.048086893
100	0xbd9c14e2	-0.076211706
101	0xbcaa70bc	-0.020805709
102	0x3de41a3f	0.111378185
103	0x3ce20ec6	0.027594935
104	0x3da54446	0.08069663
105	0x3dac1477	0.08402341
106	0xbd8a2e98	-0.06747168
107	0x3d7ca274	0.061678365
108	0xbb10ece9	-0.0022113866
109	0xbda8d103	-0.08242991
110	0x3da74209	0.08166892
111	0xbc92744a	-0.017877717
112	0xbdb32f0d	-0.087492086
113	0x3d954198	0.07287902
114	0xbda9009d	-0.0825207
115	0xbc5dcba8	-0.013537325
116	0xbd945967	-0.07243615
117	0x3d553324	0.052050725
118	0xbbec7c27	-0.0072169486
119	0x3de96c56	0.113976166
120	0x3d5034f9	0.05083177
121	0x3dd45e33	0.103695296
122	0x3c638247	0.013886041
123	0xbc73dcb2	-0.014884161
124	0x3ce56323	0.028001374
125	0x3dc32d81	0.095301636
126	0x3c1d64e6	0.009606576
127	0x3d89b9f9	0.067249246
128	0xbd08d4ab	-0.03340594
129	0xbd8c0e9d	-0.06838725
130	0x3daea5ff	0.08527755
131	0x3db0a591	0.08625329
132	0x3db30cb2	0.08742656
133	0x3d2d6e6a	0.042341627
134	0x3d92fa1b	0.0717661
135	0x3d6b2498	0.057407945
136	0x3dca9dca	0.09893377
137	0x3dd7bf68	0.10534555
138	0xbdb0e66d	-0.086377
139	0x3da5749a	0.080788806
140	0x3cdb0bae	0.026738968
141	0x3d93a018	0.0720827
142	0x3d9a1384	0.075232536
143	0xbcf76c87	-0.030203117
144	0x3d5b36fa	0.053519227
145	0xbd7183ca	-0.058963574
146	0x3c25e32d	0.010124964
147	0x3d3649dc	0.04450403
148	0xbbbc6adc	-0.0057500433
149	0x3d6da833	0.058021735
150	0xbcb8ad1c	-0.022543482
151	0xbc6fe384	-0.014641646
152	0xbdd886fe	-0.10572623
153	0x3dc7f168	0.097628415
154	0x3ad28695	0.0016061837
155	0xbd8fda35	-0.070240416
156	0x3dc3826b	0.0954636
157	0xbca20bbf	-0.019780992
158	0xbd905cb2	-0.0704893
159	0xbde57637	-0.11204188
160	0x3da7a5b4	0.08185902
161	0xbddd6b6d	-0.108115055
162	0xbd791adf	-0.060816642
163	0xbcc645c4	-0.024203189
164	0x3d798fdd	0.060928214
165	0xbb32456c	-0.0027202023
166	0x3d337301	0.04381085
167	0xbde9c780	-0.11415005
168	0x3db62a0f	0.08894741
169	0x3da84384	0.082160026
170	0xbd1497f9	-0.036277745
171	0x3d2360b9	0.039887164
172	0xbda01628	-0.07816726
173	0xbd93be31	-0.072140105
174	0xbdd42b59	-0.103598304
175	0xbd22f36a	-0.03978292
176	0xbd175134	-0.036942676
177	0xbcd0b233	-0.025475597
178	0x3b558c1d	0.0032584735
179	0xbdafa88a	-0.08577068
180	0xbda0054e	-0.07813512
181	0xbc7f189e	-0.015569834
182	0xbbd7cdc8	-0.0065858103
183	0xbb5f95f9	-0.003411649
184	0x3c4f6432	0.012658166
185	0x3c8ef338	0.01744996
186	0xbc80ec54	-0.01573769
187	0x3aec7d5e	0.0018042733
188	0x3d3257c9	0.04354075
189	0x3db91272	0.09036721
190	0xbd9d640f	-0.076851
191	0x3da3b889	0.07994182
192	0x3d16296f	0.036660608
193	0xbda87a19	-0.08226413
194	0x3d8499da	0.06474657
195	0xbd44508f	-0.04792839
196	0x3dd9a0f9	0.10626406
197	0xbd9fa68a	-0.07795437
198	0xbcfa6ade	-0.030568536
199	0x3dac4305	0.084112205
200	0x3c044be9	0.008074739
201	0x3cf92687	0.03041388
202	0xbd765011	-0.06013495
203	0x3d5f450e	0.054509215
204	0xbddf138e	-0.10892402
205	0xbdc17e17	-0.09447878
206	0x3d0a873c	0.033820376
207	0x3d839868	0.064255536
208	0x3d2f742e	0.042835407
209	0xbcb5d700	-0.022197247
210	0xbdd36b24	-0.1032317
211	0xbd4b5709	-0.04964355
212	0x3d1ae6f6	0.037817918
213	0x3d4a420c	0.049379393
214	0x3caf536c	0.021402083
215	0xbdae8bca	-0.085227564
216	0xbdac2170	-0.08404815
217	0xbdd3e0b4	-0.10345593
218	0xbde8f9fb	-0.11375805
219	0x3d48056c	0.048833296
220	0x3c7309f0	0.014833912
221	0xbd637880	-0.05553484
222	0xbd94faff	-0.07274436
223	0x3cf44d7a	0.0298221
224	0xbde9f01d	-0.11422751
225	0x3d990f0e	0.074735746
226	0x3dcb936a	0.099402264
227	0x3d6260dd	0.055268157
228	0xbc6e45c1	-0.014542998
229	0xbd71a6ed	-0.058997083
230	0x3dc802f2	0.09766187
231	0xbde49df9	-0.111629434
232	0x3d82c590	0.06385338
233	0x3d595df0	0.0530681
234	0x3c303885	0.010755663
235	0x3d723ce3	0.059140097
236	0x3d80e368	0.06293374
237	0x3da94a3a	0.08266111
238	0x3d933380	0.07187557
239	0x3a93e94e	0.001128474
240	0x3deeb35d	0.116553046
241	0x3da8adbe	0.08236264
242	0xbda975b5	-0.08274404
243	0xbde2d794	-0.110762745
244	0xbd51ee5b	-0.051252704
245	0x3d8e7596	0.069560215
246	0xbcb7490e	-0.022373702
247	0xbd9cb8b9	-0.076524206
248	0xbd8bdd8c	-0.06829366
249	0xbd814b95	-0.06313244
250	0x3d72d473	0.05928464
251	0xbdc1976c	-0.094527096
252	0x3c199a0e	0.009375108
253	0xbdbaa2c6	-0.09113078
254	0xbd19265e	-0.037390105
255	0xbdebf2e6	-0.115209386

conv3.bias f4 [8]
0	0x3dff0470	0.12452018
1	0xbcd96c4b	-0.026540896
2	0xbd2fc91a	-0.042916395
3	0x3c80528f	0.015664367
4	0xbd0f7b04	-0.035029426
5	0x3b000ac5	0.001953767
6	0xbdccf032	-0.10006751
7	0x3e011129	0.12604202

conv4.weight f4 [3, 8, 3, 3]
0	0x3cac26c7	0.021014584
1	0x3cb2c632	0.021823023
2	0x3c1f86da	0.009736741
3	0x3c83166f	0.016001908
4	0xbd3a9930	-0.045556247
5	0x3c63707e	0.013881801
6	0xbc8d6e0b	-0.017264387
7	0xbd13db73	-0.036097955
8	0x3e0208b6	0.12698635
9	0xbc88ba2d	-0.016690338
10	0x3df3798c	0.118884176
11	0x3e12bd6b	0.1433007
12	0xbc97a664	-0.018511958
13	0xbc46a9fa	-0.0121254865
14	0x3d930d76	0.07180302
15	0x3d185b36	0.03719636
16	0x3dac60f0	0.08416927
17	0xbc31a8ce	-0.010843469
18	0xbdccfe8a	-0.10009487
19	0xbdb5c24d	-0.088749506
20	0xbde9034c	-0.11377582
21	0xbd51d81d	-0.051231492
22	0xbd93f2a7	-0.07224017
23	0x3ceb81b9	0.02874838
24	0x3d0bf441	0.034168486
25	0x3dea0d12	0.11428274
26	0xbc063598	-0.008191489
27	0xbd7dc13d	-0.061951865
28	0x3d69cd13	0.05708034
29	0xbdd8ef32	-0.10592498
30	0x3d192b2b	0.037394684
31	0xbdc4ee88	-0.09615809
32	0x3c69bdad	0.014266414
33	0xbdc75fb9	-0.097350545
34	0x3c8f3fef	0.01748654
35	0xbd658aae	-0.05604046
36	0xbd47fcd3	-0.048825096
37	0xbd768359	-0.060183857
38	0xbd0caf68	-0.034346968
39	0x3cd947d3	0.026523506
40	0xbdd29094	-0.10281482
41	0x3dd4c165	0.103884496
42	0x3df7f9c2	0.121081844
43	0x3cda5d89	0.02665593
44	0xbdd00129	-0.10156471
45	0xbd2d8721	-0.042365197
46	0x3e054ed8	0.13018358
47	0x3e138a94	0.14408332
48	0xbd2283ec	-0.03967659
49	0x3d4aa230	0.04947108
50	0x3e1cbe9f	0.15307091
51	0x3dcf7fea	0.101318195
52	0x3d70fe7b	0.05883644
53	0xbd3e052d	-0.046391655
54	0x3d35d952	0.044396706
55	0x3dcfa7af	0.10139405
56	0x3dca0e3b	0.098659955
57	0xbd422746	-0.047400735
58	0x3d23cf36	0.039992534
59	0xbb9c0f30	-0.0047625527
60	0xbc1ad3d0	-0.009449914
61	0xbd88952e	-0.06669079
62	0x3d112d4a	0.03544358
63	0xbd32126f	-0.04347461
64	0xbd0a0262	-0.03369368
65	0x38ecc4a5	0.00011289985
66	0x3d8cd507	0.06876569
67	0x3c447afa	0.0119922105
68	0x3d40c78b	0.0470653
69	0xbdf6e83d	-0.12056015
70	0x3d6d1843	0.057884466
71	0x3d83aff0	0.06430042
72	0x3d330dfe	0.043714516
73	0x3dd500e5	0.10400561
74	0x3c9e7906	0.019344818
75	0x3d125575	0.03572603
76	0xbc301b1b	-0.01074865
77	0xbda181f3	-0.07886114
78	0xbcb0b685	-0.021571407
79	0x3d12ca66	0.035837553
80	0x3cc1c1c0	0.023651958
81	0xbc9f67f0	-0.019458741
82	0x3d42ae1d	0.04752933
83	0xbb8208c4	-0.00396833
84	0xbd9ea5dd	-0.0774648
85	0xbc4e7f83	-0.012603643
86	0x3d900a80	0.07033253
87	0x3d932356	0.07184474
88	0xbd96b887	-0.073594145
89	0xbcdf2ae2	-0.027242128
90	0xbd8a241b	-0.06745168
91	0xbd1653bc	-0.03670095
92	0xbdada1e7	-0.08478146
93	0x3def4eec	0.11684975
94	0xbd5e8cb7	-0.054333415
95	0xbdc7a284	-0.09747794
96	0xbded8741	-0.11598063
97	0x3d87ba9f	0.06627392
98	0x3a59a8d3	0.000830305
99	0x3d50ff3e	0.051024668
100	0xbdc0d4a4	-0.09415558
101	0x3cc53e50	0.024077564
102	0xbcf1e3a5	-0.029527495
103	0xbd2d1179	-0.04225299
104	0xbd838a04	-0.06422809
105	0x3d4a4667	0.049383547
106	0x3b96c887	0.0046015414
107	0xbc92670e	-0.017871406
108	0x3d5e902a	0.054336704
109	0xbde7b1ba	-0.113131955
110	0xbd38e446	-0.045139574
111	0xbdbbec2e	-0.09175907
112	0x3dd8451c	0.105600566
113	0x3d30a4e1	0.04312599
114	0x3d983aea	0.07433112
115	0x3dd850c3	0.10562279
116	0xbd7be20e	-0.06149488
117	0x3d2ccf2f	0.042189773
118	0x3c7fb7a1	0.015607745
119	0xb9869d24	-0.0002567555
120	0x3d7e319f	0.06205904
121	0xbd8835a3	-0.066508554
122	0x3e099460	0.13435507
123	0x3c8c1c2c	0.017103277
124	0x3e05af50	0.13055158
125	0x3e0b5700	0.13607407
126	0xbcc95868	-0.024578288
127	0xbd553882	-0.052055843
128	0x3dbe6035	0.09295694
129	0x3de33503	0.110940956
130	0xbd7ce09d	-0.061737645
131	0x3d650da6	0.05592122
132	0x3d950d31	0.07277907
133	0xbb749160	-0.0037318096
134	0xbd03c798	-0.03217277
135	0x3c2bce04	0.01048613
136	0xbe092087	-0.13391314
137	0x3bcc6fb2	0.006238901
138	0x3d60d466	0.05489006
139	0x3db3f3ba	0.087867215
140	0x3b722def	0.0036953648
141	0x3d1a4e81	0.037672523
142	0x3db1adde	0.08675741
143	0xbd0a0b42	-0.033702143
144	0xbe041ea7	-0.12902318
145	0xbd69e36e	-0.05710166
146	0x3da06649	0.07832009
147	0xbd8db921	-0.06920076
148	0x3c4433fc	0.011975285
149	0x3d0f2d39	0.034955237
150	0xbdbe83aa	-0.09302457
151	0xbdce0ead	-0.10061393
152	0xbde4259b	-0.11139985
153	0x3d8184cd	0.06324158
154	0xbc1dfe28	-0.009643115
155	0x3cb0bb06	0.021573555
156	0xbd2bc863	-0.04193915
157	0x3c458da0	0.012057692
158	0x3de887fa	0.113540605
159	0x3a88fa9b	0.0010450663
160	0x3d1de797	0.03855094
161	0x3dab4913	0.08363547
162	0x3de3858b	0.11109456
163	0xbcf4aa13	-0.029866254
164	0x3cff2a43	0.031148082
165	0xbc6ae2ea	-0.014336327
166	0xbd62d996	-0.055383287
167	0xbdacb1da	-0.0843236
168	0xba9ea38b	-0.0012103183
169	0x3dcf2f5f	0.10116457
170	0x3bd60bdb	0.006532175
171	0x3d85440b	0.06507119
172	0xbdedd615	-0.116130985
173	0x3c94246e	0.018083777
174	0x3bd1ab97	0.006398629
175	0x3ca8ff84	0.020629652
176	0xbdd85487	-0.10562997
177	0x3d72a1b3	0.05923624
178	0xbdcebfd5	-0.10095183
179	0xbd3f1a5f	-0.04665601
180	0x3cf6e9ba	0.030140746
181	0xbd51fd89	-0.05126718
182	0xbd0ede05	-0.034879703
183	0x3d6066e6	0.05478563
184	0x3d477dc1	0.048703913
185	0x3d1765ca	0.036962308
186	0x3d7a390e	0.061089568
187	0x3d97b7a8	0.074080765
188	0x3ccffb33	0.025388336
189	0xbda42bce	-0.080161676
190	0x3e095d5b	0.13414519
191	0xbdb5081e	-0.08839439
192	0x3df88fcf	0.12136804
193	0x3d1d593e	0.038415186
194	0x3e0d5b91	0.13804461
195	0xbb436d73	-0.0029819875
196	0x3d885555	0.06656901
197	0x3d6addb4	0.05734034
198	0xbc3cc5e8	-0.011521794
199	0x3cf3a714	0.029742755
200	0x3d8a66c1	0.0675788
201	0x3d171ede	0.03689467
202	0x3dc00ff7	0.09378045
203	0x3d7274d2	0.05919344
204	0x3da800cf	0.08203279
205	0xbd62525c	-0.055254325
206	0x3d91c027	0.07116728
207	0xbd7b695f	-0.061379787
208	0x3d07473a	0.03302691
209	0xbdaefdc8	-0.08544499
210	0xbddc04fa	-0.10743137
211	0xbc886463	-0.01664943
212	0x3d1dcd62	0.038525946
213	0xbde706d6	-0.11280601
214	0x3cccccfe	0.025000092
215	0xbda646ef	-0.08118998

conv4.bias f4 [3]
0	0x3dcf12ae	0.10110985
1	0xbe15350d	-0.14571019
2	0xbe36dc41	-0.17857458
