checkpoints/checkpoint.pt (torch, 2861 bytes, 5 tensors)

conv1.weight f4 [1, 1, 3, 3]
-0.16486561 0.26421097 0.28188977 0.12387252 -0.12053606 0.20856646 0.013114005 -0.17426793
-0.28594548
00000000: 88d2 28be a946 873e db53 903e e0b0 fd3d
00000010: 9cdb f6bd 7292 553e 20dc 563c 4b73 32be
00000020: 7267 92be

conv2.weight f4 [1, 1, 3, 3]
0.013958573 0.30576256 0.13541833 0.067496926 0.18457285 0.022971392 0.24115768 -0.13363986
-0.3148099
00000000: 80b2 643c e98c 9c3e 1aab 0a3e d43b 8a3d
00000010: aa00 3d3e 802e bc3c 0af2 763e e3d8 08be
00000020: c32e a1be

conv3.weight f4 [1, 1, 3, 3]
-0.2196242 0.20533893 0.0073474944 -0.32570824 -0.006747693 0.2805049 -0.1403554 0.014708847
-0.069250554
00000000: 2be5 60be 5e44 523e 40c3 f03b 3bc3 a6be
00000010: c01b ddbb 579e 8f3e 53b9 0fbe 60fd 703c
00000020: 3cd3 8dbd

conv4.weight f4 [3, 1, 3, 3]
0.30151674 0.055043202 -0.10328411 0.33406132 -0.10119506 0.10722809 -0.022406533 0.24797662
-0.19611777 -0.054257847 0.07701464 0.06898578 0.019571654 0.18836927 0.1364254 -0.21843465
0.29541448 0.10028091 0.14823994 -0.10354703 0.23778866 0.044893563 -0.25055072 -0.25664157
-0.042076092 0.22300814 0.18170358
00000000: 6760 9a3e fb74 613d 9f86 d3bd 160a ab3e
00000010: 5b3f cfbd 679a db3d e88d b7bc 95ed 7d3e
00000020: 19d3 48be 7a3d 5ebd dab9 9d3d 6b48 8d3d
00000030: bc54 a03c e0e3 403e 1ab3 0b3e 55ad 5fbe
00000040: 9140 973e 1460 cd3d 36cc 173e 7710 d4bd
00000050: df7e 733e 50e2 373d 2f48 80be 8666 83be
00000060: fb57 2cbd 3f5c 643e 8110 3a3e

conv4.bias f4 [3]
0.1306749 0.090178534 -0.06711075
00000000: a4cf 053e 86af b83d 5c71 89bd
